fNN_cpu.pt (torch, 161031 bytes, 14 tensors)

weight f4 [128, 4]
0	0xbd2e7e98	-0.042601198
1	0xbe0ae2ab	-0.1356303
2	0x3e40f1dd	0.18842264
3	0xbea49c54	-0.3215052
4	0x3ec37627	0.3817608
5	0x3da9eba6	0.082968995
6	0x3e602124	0.21887642
7	0xbe60376d	-0.21896143
8	0xbe9252fb	-0.28578934
9	0xbeb7b9f4	-0.35884058
10	0x3deaacd5	0.11458746
11	0xbd9a2bf8	-0.075279176
12	0xbe93cae2	-0.28865725
13	0x3e8c32ca	0.273825
14	0xbecafc29	-0.39645508
15	0xbed20260	-0.41017437
16	0x3da313fd	0.07962797
17	0xbedde293	-0.43336925
18	0xbeaa204a	-0.3322776
19	0xbe279f4b	-0.16369359
20	0x3e5916da	0.21200123
21	0xbebc39ed	-0.36762944
22	0x3ec42c5c	0.38315094
23	0xbcf86cd1	-0.030325325
24	0x3e85338b	0.26015887
25	0xbe04195f	-0.12900303
26	0x3d52649f	0.05136549
27	0x3d5af5cb	0.053457063
28	0x3c81dc9c	0.015852265
29	0xbf83e04f	-1.0302829
30	0xbe9febc3	-0.3123456
31	0xbf2427a0	-0.6412296
32	0x3edc968f	0.43083617
33	0x3e923375	0.28554884
34	0xbe8f4784	-0.2798425
35	0xbd29d90f	-0.04146677
36	0xbe36b651	-0.17842986
37	0xbc829871	-0.01594183
38	0xbe95f9c0	-0.29292107
39	0x3e0b69c3	0.13614564
40	0xbe2d2571	-0.16908814
41	0xbe9c6e4d	-0.30552903
42	0xbba660aa	-0.005077441
43	0xbd6194c4	-0.055073515
44	0x3ed5feb6	0.41795892
45	0xbe25c50d	-0.1618845
46	0xbcfa4d63	-0.030554479
47	0x3e84471d	0.25835505
48	0xbddbbe89	-0.10729701
49	0xbe89af67	-0.26891634
50	0xbd36760f	-0.044546183
51	0x3e169ac9	0.14707483
52	0xbea04791	-0.313046
53	0x3de85d7c	0.11345956
54	0x3ee2a34e	0.44265217
55	0x3d1320e3	0.035920035
56	0xbe04ca22	-0.12967733
57	0x3d9c5814	0.07633987
58	0x3d990e60	0.07473445
59	0xbeade321	-0.33962348
60	0xbe3cdb2c	-0.18442982
61	0xbe33c09b	-0.17553942
62	0xbe860e5f	-0.2618284
63	0x3dc19c93	0.09453692
64	0x3e922057	0.28540298
65	0xbec3a363	-0.38210592
66	0xbea7d5d0	-0.32780313
67	0x3dd53dab	0.10412153
68	0xbe4e59fe	-0.20151517
69	0x3e72de61	0.23717643
70	0xbcda5c02	-0.0266552
71	0x3ea26cf0	0.31723738
72	0xbe0d924e	-0.13825342
73	0xbf01b571	-0.5066748
74	0xbee32dbb	-0.44370827
75	0x3f1c1506	0.6096958
76	0xbe60f15e	-0.21967074
77	0x3ea59723	0.3234187
78	0x3dcab6db	0.09898158
79	0x3e1ceaa1	0.15323879
80	0xbebffdca	-0.37498313
81	0xbe3d4538	-0.18483436
82	0x3e80c483	0.25149927
83	0x3ec8ff67	0.39257357
84	0xbd02d442	-0.031940706
85	0xbf0be9f5	-0.54653865
86	0x3eb01e19	0.34397963
87	0xbb9ef81b	-0.004851354
88	0x3e1ae41b	0.15126078
89	0xbe4b96ac	-0.19881696
90	0x3eac8224	0.3369304
91	0xbeff2362	-0.49831682
92	0xbe3a85fb	-0.18215172
93	0x3f00f40a	0.50372374
94	0xbee08f4d	-0.4385933
95	0xbf25672b	-0.64610547
96	0xbe3b9839	-0.18319787
97	0xbd9dc072	-0.07702722
98	0xbe98d368	-0.2984879
99	0x3e5e0030	0.21679759
100	0xbf05f388	-0.52324724
101	0x3bdf4b6c	0.006814411
102	0xbecf147c	-0.40445316
103	0x3d863c3c	0.065544575
104	0xbedfbccf	-0.43698737
105	0x3d044298	0.03229007
106	0x3d7b94c9	0.06142119
107	0xbdcce884	-0.10005286
108	0xbec3bc4f	-0.38229606
109	0xbd60fd9a	-0.054929353
110	0x3cb73084	0.022362001
111	0xbe5492ea	-0.20759168
112	0xbc170337	-0.009217075
113	0x3f47c2d8	0.7803168
114	0x3de28f89	0.110625334
115	0xbf2d6e5e	-0.6774653
116	0xbea52c9e	-0.32260603
117	0xbde5f1f3	-0.11227789
118	0x3eaaecea	0.33383876
119	0x3ebcf459	0.36905172
120	0xbd5312f3	-0.051531743
121	0xbeb346e3	-0.3501502
122	0x3d89887e	0.06715487
123	0xbed00e4a	-0.40635902
124	0xbd48134d	-0.04884653
125	0x3f35a4b3	0.70954436
126	0xbdc0d59e	-0.09415744
127	0x3f1fff7e	0.62499225
128	0xbd3a0b84	-0.04542114
129	0xbdca1dc0	-0.098689556
130	0x3f012a94	0.50455594
131	0xbe1d1502	-0.15340045
132	0x3eca54d8	0.39517856
133	0xbe90b5e8	-0.28263783
134	0x3e563340	0.20917988
135	0xbe8a945b	-0.2706631
136	0xbea3f763	-0.3202468
137	0x3e06718d	0.13129254
138	0x3d32f101	0.04368687
139	0xbd9954fd	-0.07486913
140	0x3ca638c5	0.020290742
141	0xbde515fd	-0.111858346
142	0x3e76e133	0.24109344
143	0xbdc9a8aa	-0.09846623
144	0x3c0a2593	0.00843181
145	0x3f0f02b2	0.5586349
146	0xbe5e1bc4	-0.21690279
147	0xbd8bb0fb	-0.06820866
148	0x3ef28faa	0.47375232
149	0x3eec8d78	0.46201682
150	0x3d1c1131	0.038102333
151	0xbeb727a4	-0.3577243
152	0x3ecdaade	0.40169424
153	0xbe9e9b26	-0.30977744
154	0xbe3402dc	-0.17579216
155	0x3e6dc7e1	0.23220779
156	0x3e53e350	0.20692182
157	0x3f3029b2	0.6881362
158	0xbef6cfa5	-0.48205295
159	0xbeba6a44	-0.364092
160	0x3efd1b6a	0.49434978
161	0x3edc731b	0.43056569
162	0xbe882ae9	-0.26595238
163	0xbead5a67	-0.33858034
164	0x3dd61870	0.1045388
165	0x3c7dbfbc	0.015487608
166	0xbeb54c96	-0.35409993
167	0xbe8dba4c	-0.27681196
168	0xbe966366	-0.2937271
169	0xbf0bbb02	-0.54582226
170	0xbf162ef5	-0.586654
171	0x3e967aa8	0.29390454
172	0xbc16826f	-0.009186371
173	0xbe963a7a	-0.2934149
174	0x3ca5d592	0.02024344
175	0x3dba98be	0.091111645
176	0x3ef00b5f	0.46883675
177	0x3ec0aca4	0.37631714
178	0x3e428e8c	0.1899969
179	0xbeae7136	-0.34070748
180	0xbe374b37	-0.17899786
181	0xbdd66d76	-0.10470097
182	0x3d347aba	0.044062354
183	0xbe7ee9ca	-0.24893871
184	0x3d7d535c	0.061847076
185	0xbe7a76f2	-0.24459437
186	0x3f077c71	0.5292426
187	0x3dcd711f	0.10031342
188	0x3dfb8e02	0.12282945
189	0x3e708c29	0.23490967
190	0x3d6e88f9	0.058236096
191	0x3ea874c1	0.32901576
192	0x3ebf7763	0.37395772
193	0x3d3e1c4b	0.0464137
194	0x3e9836cc	0.29729307
195	0x3e9e5c53	0.30929813
196	0x3ead0608	0.33793664
197	0xbeb2cd55	-0.3492228
198	0x3ee1a131	0.44068292
199	0x3eac9148	0.3370459
200	0xbdbdc925	-0.09266881
201	0x3eeaa123	0.45826063
202	0x3c137e23	0.009002241
203	0x3eaf5c67	0.34250185
204	0x3e7e8065	0.24853666
205	0xbf37c508	-0.7178502
206	0xbd46a7e4	-0.048499957
207	0x3eb54b6e	0.3540911
208	0xbeb0d596	-0.34537953
209	0xbd86736d	-0.065649845
210	0xbd5955ce	-0.053060345
211	0x3d48dba4	0.04903759
212	0xbe8b2b9c	-0.2718171
213	0x3eca9340	0.39565468
214	0xbedb80bc	-0.42871654
215	0x3e9d3f21	0.30712226
216	0x3eb63c4e	0.35592884
217	0xbe8470f5	-0.2586743
218	0x3e3c9d2a	0.18419328
219	0xbe0a3b8c	-0.13499278
220	0xbe903e43	-0.28172502
221	0xbea16fc3	-0.3153058
222	0x3edb1701	0.42790988
223	0xbe14c222	-0.14527181
224	0xbdaf8baf	-0.085715644
225	0x3f1ba0cc	0.6079223
226	0xbda2f49e	-0.07956813
227	0xbf771ae5	-0.9652541
228	0xbe19e8d0	-0.15030217
229	0x3d506d53	0.05088551
230	0x3eef2db5	0.4671456
231	0xbf002d1d	-0.5006884
232	0xbed16956	-0.40900677
233	0x3f0f6c3c	0.5602453
234	0xbf0215cb	-0.50814503
235	0x3d50b781	0.050956253
236	0xbe167f57	-0.14697014
237	0x3eae9250	0.34096003
238	0xbe0d272b	-0.13784473
239	0x3d8a9688	0.06766993
240	0x3df90be8	0.12160474
241	0x3e9acd9d	0.30234995
242	0xbf09d461	-0.5383969
243	0x3ec010e5	0.3751289
244	0x3d9eb42a	0.07749207
245	0x3ed4da8f	0.41572997
246	0x3e2de244	0.16980845
247	0x3eace8cf	0.3377137
248	0x3b253e4d	0.0025214136
249	0xbf7188a9	-0.9434915
250	0x3e877873	0.26459083
251	0x3f2587c0	0.64660263
252	0xbe3f2bf9	-0.18669118
253	0x3ed7f439	0.42178515
254	0x3ea7bd5f	0.32761666
255	0x3ef0c34d	0.47024003

bias f4 [128]
0	0xbe8ebfda	-0.27880746
1	0xbdf914f2	-0.12162198
2	0x3e3ae00c	0.1824953
3	0xbe9acb5a	-0.3023327
4	0xbd90f757	-0.07078426
5	0xbd1f8356	-0.03894361
6	0xbdc77663	-0.09739377
7	0x3e1775f5	0.14791091
8	0x3e98f77c	0.29876316
9	0x3e9b543f	0.30337712
10	0xbe88e20d	-0.26734963
11	0xbe1fa919	-0.1559185
12	0xbecf3b85	-0.40475097
13	0xbe74f6fc	-0.23922342
14	0x3e2bec2e	0.16789314
15	0xbdce895b	-0.10084792
16	0x3ead89b5	0.33894125
17	0x3db5200e	0.088440046
18	0x3e3caa5a	0.18424359
19	0x3e57158d	0.21004315
20	0x3e295c86	0.16539201
21	0x3dfd38a6	0.123643205
22	0x3d914f8b	0.0709525
23	0xbc6463f9	-0.013939851
24	0xbeab3727	-0.33440515
25	0x3e825c34	0.2546097
26	0xbe9298a5	-0.28632084
27	0xbec0b9b7	-0.3764169
28	0xbddb2eda	-0.107022956
29	0xbda7b837	-0.08189433
30	0xbe3339f1	-0.17502572
31	0x3c213341	0.00983888
32	0xbe3fed3d	-0.18742843
33	0xbd659efb	-0.05605982
34	0x3eac83c7	0.33694288
35	0xbe9be50e	-0.30448192
36	0xbe88c410	-0.26712084
37	0xbe8e3dfb	-0.27781662
38	0x3e78e6c3	0.24306779
39	0xbe17c52c	-0.14821309
40	0xbd75628b	-0.05990843
41	0x3e9e91bb	0.3097056
42	0x3ecce58a	0.40018874
43	0xbe3a9ec0	-0.18224621
44	0xbb08d021	-0.0020876008
45	0x3eb099a8	0.3449223
46	0xbebcd534	-0.3688141
47	0x3ea2d2dd	0.318015
48	0x3e307eea	0.17235914
49	0xbe7dd5eb	-0.24788634
50	0xbe90ea02	-0.28303534
51	0xbc239665	-0.009984587
52	0x3ecb6bdb	0.39730725
53	0x3cda558a	0.026652116
54	0xbe3f69cc	-0.18692702
55	0x3e80a8f4	0.251289
56	0xbd0c697c	-0.034280285
57	0x3df0bade	0.11754392
58	0xbd7ce3ce	-0.06174069
59	0xbecf8e17	-0.40538093
60	0x3d349510	0.04408747
61	0x3cdc1cd8	0.026869223
62	0xbcff0f4a	-0.03113522
63	0xbe377943	-0.17917351
64	0xbe1b1114	-0.15143234
65	0x3d0832e6	0.033251666
66	0xbe304857	-0.17215095
67	0x3c16002f	0.009155317
68	0x3e38609a	0.180056
69	0x3eea7555	0.45792642
70	0x3d0c24bc	0.03421472
71	0x3d8803ed	0.06641374
72	0x3e0fd601	0.1404648
73	0x3d107045	0.03526332
74	0xbde953e0	-0.11392951
75	0xbeb338e0	-0.3500433
76	0xbe9fbfce	-0.31201023
77	0xbec8c839	-0.39215258
78	0x3e85c930	0.26130056
79	0xbe0e92aa	-0.13923135
80	0x3e07a10f	0.13245033
81	0xbd485b20	-0.04891503
82	0xbbefc445	-0.0073170983
83	0xbebbb5fe	-0.36662287
84	0xbe2504aa	-0.1611506
85	0x3e8c911f	0.2745447
86	0xbe061257	-0.13092934
87	0xbe902f8a	-0.2816127
88	0x3dcfab8d	0.101401426
89	0xbebc28a7	-0.36749765
90	0xbed4890a	-0.41510803
91	0xbe515b80	-0.2044506
92	0x3ce5a513	0.028032815
93	0xbe83cb00	-0.25740814
94	0xbdb486d7	-0.08814781
95	0xbe1fc678	-0.15603054
96	0xbe7be9dd	-0.2460093
97	0x3e8e7f90	0.27831697
98	0xbeb4028f	-0.35158202
99	0x3eb972cc	0.36220396
100	0x3e3f4f99	0.18682708
101	0x3dd79e48	0.10528237
102	0x3c760487	0.015015728
103	0x39ca450a	0.0003857988
104	0x3e99a523	0.30008802
105	0x3ea6c193	0.3256956
106	0x3bfba08b	0.0076790503
107	0x3cb52b54	0.022115387
108	0x3e532762	0.20620492
109	0x3e20dbe2	0.15708879
110	0xbec4afa8	-0.38415265
111	0x3ce80819	0.028324174
112	0x3d71263b	0.05887435
113	0xbe08a38b	-0.13343637
114	0x3e12eb8e	0.1434767
115	0x3ec5b790	0.3861661
116	0xbd39630c	-0.045260474
117	0xbe1acc8d	-0.15117092
118	0xbddf2290	-0.10895264
119	0x3e9288ae	0.28619903
120	0xbbf427af	-0.0074510197
121	0xbe9ba71f	-0.3040094
122	0x3d4a93c6	0.049457334
123	0xbe0e7a5c	-0.13913864
124	0xbe4294d0	-0.1900208
125	0x3e5016ad	0.2032115
126	0xbea73ed5	-0.32665125
127	0xbe8bb295	-0.27284685

weight f4 [128, 128]
0	0xbd8eb81c	-0.0696871
1	0x3d9f9762	0.07792546
2	0xbe21049c	-0.15724415
3	0x3ca44d55	0.020056406
4	0xbd0ffff6	-0.035156213
5	0x3c14ac40	0.009074271
6	0x3ddf821b	0.109134875
7	0x3ad4dd52	0.0016240275
8	0xbd5c8136	-0.053834163
9	0xbd39c624	-0.045354977
10	0x3d6fd378	0.05855128
11	0x3e02d1b3	0.12775306
12	0xbd0bc7bc	-0.03412603
13	0x3e0c50a3	0.13702635
14	0x3cdd53c6	0.027017485
15	0xbd4a5bc7	-0.049403932
16	0x3d670014	0.05639656
17	0xbdad1604	-0.08451465
18	0x3d85a7d5	0.06526152
19	0xbd02e767	-0.031958964
20	0xbd884744	-0.06654218
21	0xbd3c471a	-0.045966245
22	0xbd22194d	-0.03957491
23	0x3b3c4ec1	0.0028733464
24	0x3d8e9767	0.069624715
25	0xbe20fcf8	-0.157215
26	0x3d5aad38	0.05338785
27	0x3d375bfc	0.044765458
28	0xbd36b185	-0.04460289
29	0xbd4cc50f	-0.049992617
30	0xbcd348e1	-0.025791587
31	0x3e7f5af5	0.24937041
32	0x3e43936e	0.19099209
33	0x3da13d03	0.07872965
34	0xbdc596e4	-0.09647921
35	0x3bf135da	0.007361156
36	0xbcad2685	-0.021136532
37	0x3d67b7b6	0.056571685
38	0x3c2b200a	0.01044465
39	0xbd4fef98	-0.050765604
40	0x3d9efedb	0.077634536
41	0xbdd0c3bc	-0.10193583
42	0x3d10ae1c	0.035322294
43	0x3cc95e5e	0.02458113
44	0x3d009d98	0.031400293
45	0xbd03189b	-0.032005887
46	0x3d8e8ba8	0.06960231
47	0xbd0efd0f	-0.034909304
48	0xbd12191e	-0.035668485
49	0x3e0784f5	0.13234313
50	0x3d24f32f	0.04027098
51	0x3b36ba6d	0.0027882115
52	0xbd0f5325	-0.034991402
53	0xbd97a4c3	-0.07404473
54	0x3cbf05b6	0.023318153
55	0xbdc73ac8	-0.097280085
56	0x3d5b0b4f	0.05347758
57	0xbd80371e	-0.06260513
58	0xbd1d88ab	-0.038460415
59	0x3d404157	0.046937313
60	0x3db2f6ea	0.08738501
61	0x3d4d8c29	0.050182495
62	0x3cb82b5b	0.022481611
63	0xbda729be	-0.081622586
64	0xbde72305	-0.11285976
65	0x3d5b1d85	0.05349495
66	0xbda78a10	-0.0818063
67	0x3dae2f84	0.08505157
68	0x3c095eb5	0.008384396
69	0xbdf0bea3	-0.11755111
70	0x3ceee991	0.029164108
71	0x3d9c679f	0.07636952
72	0xbbead9c2	-0.007167072
73	0x3d5c470a	0.053778686
74	0xbd0f14e5	-0.034932036
75	0xbd7fc58c	-0.062444255
76	0xbd5ce0ec	-0.05392544
77	0xbcd0ff42	-0.025512341
78	0x3c00c276	0.007858863
79	0x3cf9320b	0.03041937
80	0xbd05edef	-0.032697614
81	0x3e2b0edc	0.16704887
82	0x3d164547	0.03668716
83	0xbd9c8bde	-0.07643865
84	0xbd8330ec	-0.064058155
85	0x3d3c6644	0.045995966
86	0x3d541c8b	0.051785033
87	0xbda620c5	-0.08111719
88	0x3d5747f4	0.052558854
89	0x3e1da575	0.15395148
90	0xbd9592d5	-0.073033966
91	0x3cdf2b12	0.027242217
92	0x3d60862e	0.054815464
93	0x3c7eabc2	0.01554388
94	0x3d8130a6	0.06308107
95	0xbd538799	-0.051642988
96	0x3d735a2b	0.059412163
97	0xbdee6aab	-0.11641439
98	0x3d5133fa	0.05107496
99	0xbdca1186	-0.098666236
100	0xbda2061b	-0.07911321
101	0xbd83bb77	-0.064322405
102	0x3b0a3d74	0.0021093758
103	0xbdb3bbaa	-0.087760285
104	0x3b1f07c9	0.0024266115
105	0xbd290be8	-0.04127112
106	0xbc640038	-0.013916068
107	0xbd565406	-0.052326225
108	0x3d067896	0.032829843
109	0xbcf45824	-0.029827185
110	0x3dcf06a7	0.10108691
111	0xbd2e3644	-0.04253222
112	0xb885438e	-6.354517e-05
113	0xbe2966fd	-0.16543193
114	0x3d4978e9	0.049187575
115	0xbdcea510	-0.10090077
116	0xbcabe0e5	-0.020981262
117	0x3db51863	0.08842542
118	0xbd9ee818	-0.07759112
119	0x3d271054	0.040787056
120	0x3c905db9	0.017622815
121	0xbd8b694f	-0.068071954
122	0x3bc045f7	0.0058677155
123	0x3d9c0a19	0.076191135
124	0x3d7df4dc	0.062001094
125	0x3acd961f	0.0015684998
126	0x3d89bc9d	0.06725428
127	0xbd2a8b34	-0.04163666
128	0xbc9f2878	-0.019428477
129	0xbc790791	-0.015199558
130	0x3dfc249f	0.123116724
131	0xbd83d6a1	-0.064374216
132	0xbd9d3dd2	-0.07677807
133	0x3baaa302	0.0052074203
134	0xbbb8bbc9	-0.00563762
135	0xbdbd77dc	-0.09251377
136	0x3c023bb0	0.007948801
137	0x3c1c3c73	0.009535897
138	0xbc41246a	-0.011788467
139	0x3da4d1e1	0.08047844
140	0x3d65406b	0.055969637
141	0xbe0803ce	-0.13282701
142	0x3c926c97	0.017874045
143	0x3d9770c0	0.07394552
144	0xbc8526f7	-0.016253931
145	0xbdbe6deb	-0.09298309
146	0xbd6805ef	-0.056646284
147	0x3d44746f	0.047962602
148	0xbddb34f9	-0.10703463
149	0x3d8ce179	0.06878943
150	0x3d73577b	0.0594096
151	0xbe8c906f	-0.27453944
152	0x3d00a1e8	0.031404406
153	0xbea5c6d7	-0.32378265
154	0x3b8aa3cb	0.0042309514
155	0x3d5890ff	0.052872654
156	0x3eb04587	0.34428045
157	0xbe33fb50	-0.17576337
158	0xbc074b6f	-0.008257731
159	0xbedf3fa9	-0.43603256
160	0xbf192d52	-0.5983478
161	0x3df08a7a	0.11745162
162	0x3b413f5c	0.0029487228
163	0x3d9ad086	0.07559304
164	0xbf0a1b8c	-0.53948283
165	0xbd2d84c3	-0.04236294
166	0xbce488a0	-0.02789718
167	0x3eacdd1d	0.33762446
168	0x3db1b78f	0.08677589
169	0x3d96d1bd	0.07364223
170	0xbdc52173	-0.096255206
171	0xbcd858ec	-0.026409589
172	0x3ddd2ce2	0.10799576
173	0x3d2e3085	0.04252674
174	0xbf259dd7	-0.6469397
175	0x3d335f24	0.043791905
176	0x3d8f51b6	0.06998007
177	0x3b522a3c	0.003206863
178	0xbe78e891	-0.24307467
179	0x3daa8bdf	0.083274595
180	0x3d595245	0.053056974
181	0xbe8621a9	-0.26197556
182	0x3d95db64	0.07317236
183	0xbdbf4903	-0.09340098
184	0xbe0a0cb3	-0.13481407
185	0xbe09ffcf	-0.1347649
186	0xbea7904e	-0.32727283
187	0x3d975c63	0.07390668
188	0xbd0728af	-0.032997783
189	0xbc4b05b1	-0.012391494
190	0x3e86ed70	0.26353025
191	0xbcfe4eb6	-0.031043392
192	0x3cd040d2	0.025421534
193	0x3d719f57	0.05898985
194	0xbdbbdf53	-0.09173455
195	0x3be1c8bd	0.006890385
196	0x3d26cd61	0.04072321
197	0x3c8d37b1	0.01723847
198	0xbce4f55d	-0.02794903
199	0xbe310fc6	-0.17291173
200	0x3c60d3c4	0.013722364
201	0x3c56f7ba	0.013120586
202	0xbee1c93f	-0.4409885
203	0x3d01aa8d	0.03165679
204	0xbd09f7fb	-0.03368376
205	0x3caf6a44	0.021412976
206	0x3ca12de5	0.019675205
207	0x3d93c260	0.072148085
208	0x3d8b5aa1	0.068043955
209	0xbde39d66	-0.11114006
210	0xbd2497cf	-0.04018384
211	0xbd0028b8	-0.031288832
212	0x3d62d3fb	0.05537794
213	0xbc580fe9	-0.013187387
214	0xbd831fe0	-0.06402564
215	0xbda91eae	-0.08257805
216	0xbd81e1ad	-0.06341872
217	0xbd2beb52	-0.041972466
218	0xbcaa7ea4	-0.02081234
219	0x3d2a87a9	0.04163328
220	0xbb128101	-0.0022354724
221	0xbd2fec6a	-0.04295007
222	0xbd8df272	-0.069310084
223	0x3c828c30	0.015935987
224	0xbd6afe6e	-0.05737155
225	0xbc9f5761	-0.019450845
226	0x3d278f4b	0.04090814
227	0x3d6ee00a	0.05831913
228	0x3b3063b1	0.002691489
229	0x3cb72307	0.02235557
230	0x3c8fd1c4	0.017556079
231	0x3ee6c6bd	0.450735
232	0x3e0cb00a	0.13739029
233	0xbc898a9f	-0.016789733
234	0x3dab3f83	0.08361723
235	0xbd790567	-0.060796168
236	0xbcb454ea	-0.022013146
237	0xbd18ad28	-0.03727451
238	0xbe066548	-0.13124573
239	0x3be3d7a8	0.0069531985
240	0xbc979cf8	-0.018507466
241	0xbe7f2178	-0.24915111
242	0x3d610034	0.054931834
243	0x3cc8a481	0.024492504
244	0x3eadc2d8	0.33937716
245	0xbe0d0ba0	-0.13773966
246	0x3c312410	0.010811821
247	0x3d918878	0.071061075
248	0x3df35c83	0.118828796
249	0x3d1be478	0.03805968
250	0x3c1718b2	0.009222196
251	0x3c246c3b	0.01003557
252	0xbd3a8a8d	-0.04554229
253	0x3d84747e	0.064675316
254	0x3cc36dfd	0.023856157
255	0xbea616c1	-0.32439235

bias f4 [128]
0	0x3d2d684e	0.0423358
1	0x3da45657	0.080242805
2	0xbc6f8858	-0.014619909
3	0xbcd77de7	-0.026305152
4	0x3d7f3772	0.062308736
5	0x3d5220fe	0.051300995
6	0x3d908278	0.07056135
7	0x3ba6d4e1	0.005091295
8	0xbd2a28e0	-0.041542888
9	0x3d754a59	0.059885357
10	0x3d2ae01a	0.041717626
11	0xbd83ace0	-0.06429458
12	0x3ce1fcd4	0.027586378
13	0x3cfde700	0.030993938
14	0xbc5de829	-0.013544121
15	0xbd37023f	-0.044679876
16	0x3aea7760	0.001788836
17	0x3ad7f132	0.001647508
18	0xbd5896ee	-0.052878313
19	0xbd498bbe	-0.049205534
20	0xbd66059e	-0.0561577
21	0x3d0dd54c	0.034627244
22	0xbd351041	-0.044204954
23	0xbdca598d	-0.09880362
24	0x3c9722bc	0.01844918
25	0x3ccf32cf	0.025292782
26	0x3cfd756b	0.030939778
27	0xbd73bd3e	-0.059506647
28	0xbd206156	-0.039155327
29	0xbd6bd03d	-0.05757164
30	0x3d29fffc	0.04150389
31	0xbd77761c	-0.060415372
32	0x3c6d3b38	0.014479451
33	0xbd2d03a8	-0.042239815
34	0xbcb95351	-0.022622736
35	0xbd63fed7	-0.055662956
36	0x3d506a51	0.05088264
37	0xbd6c96f6	-0.057761155
38	0xbcfad958	-0.030621216
39	0x3d8e62d9	0.069524474
40	0xbd944625	-0.072399415
41	0x3bcdda63	0.0062821372
42	0x3cf4997c	0.029858343
43	0x3d37032d	0.044680763
44	0x3d76220f	0.060091075
45	0x3d6e4b41	0.058177236
46	0x3d31b652	0.043386765
47	0xbe15107e	-0.14557073
48	0x3d0dae13	0.03458984
49	0x3cedbfe8	0.029022172
50	0xbd98c835	-0.074600615
51	0xbcef534b	-0.029214522
52	0xbd27cd70	-0.040967405
53	0x3d0f608e	0.03500419
54	0xbc90bbb3	-0.017667627
55	0xbd7578dc	-0.059929714
56	0xbd349dfe	-0.044095986
57	0xbce52fb3	-0.027976846
58	0xbd4bd57c	-0.04976414
59	0x3c27bf81	0.010238529
60	0x3d9e3071	0.07724083
61	0x3cbed921	0.023296895
62	0x3cec2fe4	0.02883143
63	0x3d16da38	0.036829203
64	0xbcdbb439	-0.026819335
65	0x3ceb4810	0.028720886
66	0x3d973a2c	0.07384142
67	0x3cfbd514	0.030741252
68	0xbca8c2e9	-0.020600753
69	0x3d5ab196	0.053392015
70	0x3e029921	0.12753727
71	0xbd0ab596	-0.03386458
72	0x3ce583a4	0.028016873
73	0xbdb91380	-0.090369225
74	0xbc2fe0aa	-0.010734716
75	0x3d56e1b7	0.052461352
76	0x3d5e058a	0.0542045
77	0x3d65c042	0.056091554
78	0x3c1610fa	0.009159321
79	0x3b9a8073	0.0047150194
80	0x3cdba7c3	0.026813393
81	0xb9dcfd71	-0.00042150498
82	0x3d56b42c	0.05241792
83	0xbd8a85fc	-0.06763837
84	0xbdbaede0	-0.09127402
85	0x3d69f4b9	0.05711815
86	0xbb40f4fd	-0.00294429
87	0x3d253092	0.040329523
88	0xbd269749	-0.04067162
89	0xbc2ef786	-0.010679131
90	0xbd077078	-0.033066243
91	0xbd129f61	-0.035796527
92	0xbcb08031	-0.021545501
93	0xbc4f21cb	-0.012642334
94	0x3d253bfd	0.040340412
95	0x3d72870f	0.059210833
96	0xbcdb766a	-0.026789863
97	0xbd31359a	-0.04326401
98	0x3d2fe700	0.04294491
99	0xbd9e32d2	-0.07724537
100	0xbc1f97a2	-0.009740742
101	0x3cfd2081	0.030899288
102	0xbda82d21	-0.08211733
103	0x3ce393c9	0.02778043
104	0xbd33ca3c	-0.043894038
105	0x3d895e82	0.06707479
106	0xbc540ca6	-0.012942469
107	0x3d43d140	0.04780698
108	0x3d0760ff	0.033051487
109	0xbd263380	-0.040576458
110	0xbc6daec3	-0.0145069985
111	0xbd56de7b	-0.052458268
112	0x3c7f41ee	0.015579684
113	0xbcd8e67f	-0.026477097
114	0x3d823655	0.06358019
115	0xbdd5c33f	-0.10437631
116	0xbb933b09	-0.0044931215
117	0x3d987f1c	0.07446119
118	0x3d5a979a	0.053367235
119	0xbd971be3	-0.07378366
120	0xbc71ee34	-0.014766265
121	0xbd9fb333	-0.077978514
122	0xbc99ad2f	-0.018759338
123	0x3d48df9e	0.049041383
124	0x3d7f7a4b	0.062372487
125	0x3c8e2fd7	0.017356796
126	0x3c38d4d1	0.011281208
127	0x3d9f264c	0.077709764

weight f4 [64, 128]
0	0x3da58da2	0.08083655
1	0x3cbc3682	0.02297521
2	0xbd16e00b	-0.036834758
3	0x3de6690a	0.11250503
4	0x3d519ec8	0.051176816
5	0x3d62cf97	0.055373754
6	0x3d24d2d1	0.040240113
7	0xbb832bab	-0.0040030084
8	0x3d8d1474	0.06888667
9	0x3d701c80	0.05862093
10	0x39c60dc0	0.00037775747
11	0x3d044faa	0.032302536
12	0x3c568972	0.013094293
13	0x3c958aab	0.018254599
14	0xbd1ca697	-0.03824481
15	0x3d15bcc6	0.03655698
16	0x3d54c937	0.051949706
17	0x3bd8a2c0	0.006611198
18	0x3c521ada	0.012823785
19	0xbb2af341	-0.0026084932
20	0x3d4790a5	0.04872193
21	0xbe4ab17f	-0.19794272
22	0x3b915d91	0.004436203
23	0x3d9c1490	0.076211095
24	0x3d794443	0.060856115
25	0xbc638ff6	-0.013889303
26	0x3c1ea132	0.009681987
27	0x3d980f54	0.074247986
28	0x3d812b8b	0.06307133
29	0x3cd9049a	0.026491452
30	0xbd3c8a80	-0.04603052
31	0xbd80480a	-0.0626374
32	0x3d30a965	0.043130297
33	0xbca1bc20	-0.019743025
34	0x3e06f265	0.13178404
35	0x3e3593bb	0.17732136
36	0xbcbad5c3	-0.022807008
37	0x3d8caec8	0.068692744
38	0x3d4922f9	0.04910562
39	0x3d170cf8	0.036877602
40	0x3d3e4dcd	0.046460915
41	0xbc2f14cc	-0.010686111
42	0xbec41037	-0.3829362
43	0x3c07d8d4	0.008291442
44	0x3d96516e	0.0733975
45	0x3d48542b	0.048908394
46	0xbca85f44	-0.020553239
47	0xbb26f592	-0.002547596
48	0xbd5c023a	-0.05371306
49	0x3d8cb997	0.06871336
50	0x3d1bbd9e	0.03802263
51	0x3d54c1b9	0.05194256
52	0xbd0394ab	-0.032124203
53	0xbd3687fc	-0.04456328
54	0x3c42fb56	0.0119007435
55	0xbd86fdc1	-0.065913685
56	0x3d0c7f84	0.034301296
57	0xbcd6cdc3	-0.026221162
58	0xbd8dd350	-0.0692507
59	0x3d036ed9	0.032088134
60	0xbd206948	-0.039162904
61	0xbc9dde2a	-0.019270975
62	0x3a88b500	0.0010429919
63	0xbd93e526	-0.07221441
64	0xbce06254	-0.027390637
65	0x3de41168	0.111361325
66	0xbb585487	-0.0033009367
67	0x3d9d7c2b	0.07689699
68	0x3de85ed0	0.11346209
69	0x3d575bc1	0.052577738
70	0xbded619c	-0.11590883
71	0xbc62494d	-0.013811422
72	0xbd480a9a	-0.048838235
73	0xbcceb870	-0.025234431
74	0xbcebe436	-0.028795343
75	0x3d2cbc57	0.042171802
76	0xbd9e49de	-0.07728933
77	0xbba56efb	-0.0050486303
78	0xbd84f021	-0.064911135
79	0xbd52d14c	-0.051469132
80	0xbd5101a3	-0.05102695
81	0xbc8c5f63	-0.017135328
82	0x3d811bd8	0.06304139
83	0x3b057ccd	0.0020368577
84	0x3c6b266c	0.014352422
85	0x3d070b56	0.032969795
86	0x3d42d191	0.04756314
87	0x3e219c01	0.15782167
88	0x3d1ee67e	0.038794033
89	0x3d714998	0.058908075
90	0xbe3b4ea0	-0.18291712
91	0x3c70b935	0.014692594
92	0x3d53c129	0.051697884
93	0x3dc51772	0.096236125
94	0xbc69075f	-0.014222949
95	0x3ddaa2de	0.10675596
96	0xbd0a0350	-0.033694565
97	0xba55efdd	-0.00081610476
98	0xbdf5b656	-0.119976684
99	0xbd9c1e09	-0.07622916
100	0x3dad3598	0.08457488
101	0x3e2ca2ae	0.16858932
102	0x3db169c2	0.0866275
103	0xbd13f483	-0.036121856
104	0xbd6b16f5	-0.05739494
105	0xbc134849	-0.008989402
106	0x3cf840b2	0.030304287
107	0x3d426c81	0.04746676
108	0x3c0d9572	0.008641588
109	0x3d697b49	0.05700234
110	0x3d97f5e3	0.07419946
111	0xbd8369c0	-0.064166546
112	0x3e0be109	0.13660063
113	0x3c84ca0d	0.016209627
114	0xbd4b3b26	-0.049616955
115	0xbda7685d	-0.081742026
116	0x3cce9f7e	0.025222536
117	0x3d83d2b7	0.06436675
118	0x3d57124a	0.052507676
119	0x3d3255ad	0.043538738
120	0x3db0f7f7	0.086410455
121	0x3c3bf5b6	0.011472156
122	0xbd1885c3	-0.03723694
123	0x3c867ea9	0.016417818
124	0x3dbf8d00	0.093530655
125	0xbc21bc84	-0.009871606
126	0x3ce2babb	0.02767693
127	0xbd1f33d2	-0.03886778
128	0x3d14dbfb	0.036342602
129	0xbdf164d8	-0.117868125
130	0xba98228c	-0.0011606975
131	0x3d02a7be	0.031898253
132	0x3d80b085	0.062836684
133	0x3dd0820c	0.101810545
134	0xbd70065c	-0.058599815
135	0x3ca345cb	0.01993074
136	0x3ca00099	0.019531535
137	0x3c74bea1	0.014938028
138	0x3deee8e3	0.11665513
139	0x3ddacc34	0.1068348
140	0xbb3ca3ba	-0.0028784112
141	0x3c762aae	0.015024824
142	0x3dbb2a37	0.09138911
143	0xbc727846	-0.014799183
144	0x3c2ef747	0.010679073
145	0x3d73c146	0.05951049
146	0x3c4c5fe2	0.012474032
147	0xbabe3c12	-0.0014513752
148	0x3d4b1863	0.049583804
149	0xbdc9f3de	-0.09860967
150	0x3d7604d9	0.060063217
151	0xbcef0301	-0.029176237
152	0xbd2e02a2	-0.04248298
153	0x3d5e58d8	0.054283947
154	0x3c12b2fc	0.008953806
155	0xbd3207f1	-0.043464605
156	0xbd41e4eb	-0.047337454
157	0x3ccde5f0	0.025134057
158	0x3ca97cc1	0.02068937
159	0xbd4ca492	-0.049961634
160	0x3d1c1762	0.038108237
161	0x3b85fabf	0.004088729
162	0xbc505fe7	-0.012718177
163	0xbebc316a	-0.3675645
164	0xbba6d53d	-0.005091338
165	0x3d694cd9	0.056958053
166	0x3d4066fc	0.046973214
167	0xbbb442da	-0.0055011334
168	0x3d4460e3	0.04794396
169	0x3ae16aac	0.0017197928
170	0x3e881e5a	0.26585656
171	0xbd9505b4	-0.072764784
172	0x3d3935f2	0.045217462
173	0x3d79c6d0	0.060980618
174	0x3d2c39d7	0.042047348
175	0x3bff6ced	0.0077949674
176	0xbd9e0fd9	-0.077178665
177	0x3ceb3ef1	0.028716536
178	0x3d769119	0.06019697
179	0xbd656581	-0.056005005
180	0xbd636551	-0.055516545
181	0x3cb8654f	0.022509245
182	0xbd8a1f08	-0.067442
183	0xbcc7b7f2	-0.024379704
184	0xbd1b474d	-0.037909795
185	0x3d607387	0.054797675
186	0x3d9152d8	0.07095879
187	0xbaf65406	-0.0018793351
188	0xbcad542e	-0.021158304
189	0x3cec7eb4	0.02886901
190	0x3a2f9e1e	0.00066992815
191	0x3d8263f7	0.06366723
192	0xbd3b4eeb	-0.04572956
193	0x3d815b09	0.06316192
194	0x3db90438	0.09034008
195	0x3d30abf1	0.043132726
196	0x3d0273ad	0.0318486
197	0xbd8f4fd7	-0.0699765
198	0xbce8d111	-0.028420003
199	0xbd83e3cb	-0.064399324
200	0x3d4c728b	0.049913924
201	0x3d800dfc	0.06252667
202	0x3b4429d4	0.0029932158
203	0x3d136419	0.035984132
204	0xbdc5fdf4	-0.09667578
205	0x3d8bec4b	0.06832179
206	0xbd4416a5	-0.047873158
207	0x3d8ba680	0.06818867
208	0x3cbeae53	0.023276484
209	0x3d9e9c48	0.07744652
210	0xbb03c675	-0.0020107303
211	0x3d3b65ab	0.045751255
212	0xbc51d982	-0.012808206
213	0x3d726d4c	0.059186265
214	0xbdb81f89	-0.0899039
215	0x3e041050	0.12896848
216	0x3cceb6e3	0.025233692
217	0xbcc5780c	-0.024105094
218	0x3e361f70	0.1778543
219	0xbd8ba3bb	-0.068183385
220	0x3c47a3bb	0.0121850325
221	0x3de5850d	0.11207018
222	0x3d9d947b	0.07694336
223	0xbbe75118	-0.0070592277
224	0xbd2eef12	-0.042708464
225	0x3d7d160c	0.061788604
226	0xbd07d92e	-0.033166103
227	0xbd3c6bd1	-0.04600126
228	0xbda1205b	-0.078674994
229	0xbd720fba	-0.05909703
230	0x3c2953df	0.010334938
231	0xbcc016c3	-0.023448354
232	0xbcff0f77	-0.031135304
233	0x3ce22d31	0.02760944
234	0x3d4ca01d	0.049957383
235	0x3cf7c2d4	0.030244268
236	0xbd7b9b93	-0.061427664
237	0xbd2e6ffb	-0.04258726
238	0xbd4a23a1	-0.049350385
239	0xbd365518	-0.044514745
240	0x3b142952	0.0022607637
241	0x3d1f1fcc	0.038848683
242	0x39bfeca3	0.00036606667
243	0x3dbedeba	0.093198255
244	0x3c77cfc8	0.0151252225
245	0xbb24640f	-0.0025084054
246	0x3da13d53	0.07873025
247	0xbb4624e2	-0.0030234386
248	0x3d13848a	0.03601507
249	0x3c3ee393	0.011650938
250	0xbd03f2f9	-0.03221414
251	0x3dc6110f	0.096712224
252	0x3d8eb66f	0.0696839
253	0x3d297efe	0.041380875
254	0xbd874cca	-0.06606443
255	0x3dc5074b	0.09620532

bias f4 [64]
0	0x3d1a00fc	0.037598595
1	0xbccf722c	-0.025322996
2	0xbab5bfc8	-0.0013866359
3	0x3daacc59	0.083397575
4	0xbaadca99	-0.0013259231
5	0x3d84b5a7	0.0647996
6	0x3d3af1c6	0.04564073
7	0xbc30fc14	-0.010802288
8	0x3da5b3be	0.08090924
9	0xbd98f6ca	-0.07468946
10	0xbdcaa0b3	-0.09893932
11	0x3dce4030	0.100708365
12	0xbab177fc	-0.0013539786
13	0x3d0ee814	0.034889296
14	0x3ae09245	0.0017133435
15	0xbd379817	-0.04482278
16	0x3d77e94d	0.060525227
17	0x3d33be39	0.043882582
18	0x3e0613de	0.13093516
19	0xbced1cc4	-0.02894438
20	0x3dc7f9c9	0.097644396
21	0x3db240c5	0.0870376
22	0x3d2b032c	0.04175107
23	0xbd9d4997	-0.07680052
24	0x3c634355	0.013871034
25	0xbd674994	-0.056466654
26	0x3e0c7e2d	0.13720007
27	0x3dbe5ef6	0.09295456
28	0xbdba5cb1	-0.09099711
29	0x3dee3684	0.11631492
30	0xbd876320	-0.066107035
31	0x3d330c2a	0.043712772
32	0xbcac90ac	-0.021065079
33	0x3d44ac47	0.04801586
34	0x3d0d5071	0.034500543
35	0x3c19130e	0.009342922
36	0x3d84237e	0.06452082
37	0xbc523230	-0.012829348
38	0xbe0c2199	-0.13684691
39	0x3d7edfd3	0.062225174
40	0xbda06d16	-0.078333065
41	0x3d9df8fb	0.07713505
42	0x3e6edd5e	0.23326632
43	0x3d24fb31	0.040278617
44	0xbd742700	-0.059607506
45	0x3d902ac1	0.07039405
46	0x3d977ed5	0.07397238
47	0xbd12c179	-0.03582904
48	0x3d4b64e1	0.049656752
49	0x3d752d1e	0.05985748
50	0x3d89ddd8	0.067317665
51	0xbd9ff09d	-0.07809565
52	0xbc6381d9	-0.013885939
53	0x3d9e4981	0.077288635
54	0x3db38f6a	0.087675884
55	0xbdca9b08	-0.09892851
56	0x3d90be90	0.07067597
57	0xbe1f6b9d	-0.15568395
58	0x3d6d22a9	0.057894383
59	0x3d50727a	0.050890423
60	0xbdb81910	-0.08989155
61	0x3a48a83d	0.0007654464
62	0xbd3117d5	-0.04323562
63	0xbce7c4a7	-0.028292013

weight f4 [64, 64]
0	0x3cb008e8	0.021488622
1	0xbc0ab578	-0.008466117
2	0xbd0b8889	-0.034065757
3	0x3dc371ab	0.09543165
4	0x3d381afa	0.0449476
5	0xbce535d6	-0.027979773
6	0xbcd63ca1	-0.026151957
7	0x3cd3c74a	0.025851864
8	0x3d2fac23	0.04288877
9	0x3bed7f74	0.0072478596
10	0x3e043ca6	0.1291376
11	0x3dd1da71	0.102467425
12	0xbd35fdef	-0.044431623
13	0x3d966c3c	0.07344863
14	0xbd421718	-0.047385305
15	0xbd0b4530	-0.03400153
16	0xbdfdf336	-0.123999044
17	0x3db070ae	0.08615242
18	0x3e1aace3	0.15105014
19	0xbcfb759e	-0.030695733
20	0x3cf323da	0.029680181
21	0x3ce4907d	0.027900929
22	0xbe125161	-0.14288856
23	0xbdeacfbb	-0.11465403
24	0x3d01182f	0.031517204
25	0xbcfc7cc4	-0.030821212
26	0x3e5ca526	0.21547374
27	0x3db9720c	0.09054956
28	0xbccb3b9b	-0.024808696
29	0x3d8ef72b	0.06980737
30	0x3d0c17c5	0.034202356
31	0xbdc538d4	-0.0962998
32	0x3cbb060a	0.022830028
33	0xbeca7f41	-0.39550212
34	0x3df0c2e6	0.11755924
35	0x3d299f19	0.041411493
36	0xbcfd4d01	-0.030920507
37	0xbd96c461	-0.07361675
38	0x3de32fe9	0.110931225
39	0x3ba7c0ee	0.0051194346
40	0xbd18ae90	-0.03727585
41	0xbd31b18b	-0.04338221
42	0x3eb12df8	0.34605384
43	0xbea71f27	-0.32640955
44	0x3deedb9d	0.11662982
45	0xbc36ff80	-0.011169314
46	0x3dfab44b	0.122414194
47	0xbe0bbe10	-0.13646722
48	0xbd4e9b1a	-0.050440885
49	0x3b8b6336	0.00425377
50	0x3de1cbf6	0.110252306
51	0xbdccd884	-0.100022346
52	0xbd581e60	-0.052763343
53	0xbd08c9ee	-0.0333957
54	0x3e193139	0.14960183
55	0xbb90f8d8	-0.0044241957
56	0xbe6b5a1c	-0.22983593
57	0x3b9b7a41	0.0047447984
58	0x3d52478a	0.051337756
59	0xbd56e6b7	-0.05246612
60	0x3de33b0f	0.11095249
61	0x3ce3ad1f	0.027792512
62	0x3ddde7c8	0.108352244
63	0xbe0797f6	-0.13241562
64	0xbc45ff2f	-0.012084766
65	0x3c39c87d	0.011339304
66	0x3d2fcaa6	0.04291787
67	0x3df11c89	0.11773021
68	0x3dbdfca7	0.09276705
69	0x3e073f0a	0.13207641
70	0x3dda7683	0.106671356
71	0xbce6c83f	-0.028171657
72	0x3dd57bfc	0.10424039
73	0x3d82aa4f	0.0638014
74	0xbd83c335	-0.06433717
75	0x3cb954f6	0.02262352
76	0x3db44dd4	0.08803907
77	0xbdaf43a5	-0.08557824
78	0xbd6a0e62	-0.057142623
79	0x3b1db589	0.0024064502
80	0x3d9f6d02	0.077844635
81	0xbcc163cd	-0.023607159
82	0x3e323bab	0.17405574
83	0xbb990ff9	-0.0046710935
84	0x3dc930e2	0.09823777
85	0xbe2c7d3e	-0.16844651
86	0x3db51a9c	0.08842966
87	0xbcfd5102	-0.030922417
88	0x3c31b041	0.010845245
89	0x3c76e1c8	0.015068479
90	0xbe5766d9	-0.21035327
91	0x3ce3171e	0.027720984
92	0xbd66df8c	-0.056365535
93	0x3d44bbb1	0.04803056
94	0x3e02c51e	0.12770507
95	0x3da1c0ee	0.078981265
96	0x3e0e45fb	0.13893883
97	0x3e1c0691	0.1523688
98	0x3e1ac317	0.15113483
99	0x3db19897	0.08671682
100	0x3ba7a31e	0.0051158806
101	0xbce2a373	-0.02766583
102	0xbc98b213	-0.0186396
103	0x3e19ac7e	0.15007207
104	0xbd48d42b	-0.049030464
105	0x3e1a9b01	0.15098192
106	0x3d78f14d	0.060776997
107	0x3e966a28	0.29377866
108	0xbdd80aba	-0.10548921
109	0xbd2b8073	-0.041870546
110	0x3df6e70d	0.12055788
111	0x3c4e5e67	0.012595749
112	0x3c163b9e	0.009169487
113	0x3dab4a90	0.08363831
114	0x3dbe467d	0.09290788
115	0x3d4f1156	0.050553642
116	0x3df9f02c	0.12204012
117	0x3dc711ff	0.09720229
118	0x3e595acc	0.21226043
119	0x3cfba777	0.030719502
120	0x3dc550f6	0.09634583
121	0xbd2c0e8a	-0.042006053
122	0x3dd7776e	0.10520826
123	0x3e351e7e	0.17687413
124	0xbd8b32c2	-0.06796791
125	0xbcbf362b	-0.023341259
126	0xbdb81754	-0.089888245
127	0x3e00bd47	0.12572204
128	0xbdcf4c49	-0.10121972
129	0x3db1198b	0.0864745
130	0xbd95aa3c	-0.0730786
131	0xbcca65c3	-0.024706727
132	0xbd70634b	-0.058688443
133	0xbdee9380	-0.11649227
134	0x3d215c49	0.03939465
135	0xbdc623ad	-0.09674773
136	0x3d491712	0.049094267
137	0xbd90e251	-0.070744164
138	0xbd8eb175	-0.06967441
139	0x3c50621f	0.012718706
140	0x3d9e04a7	0.07715731
141	0xbbadf31a	-0.005308521
142	0x3d4f2c40	0.05057931
143	0xbc09a6c6	-0.008401578
144	0xbd0d1df8	-0.03445241
145	0x3d86bcaf	0.06578957
146	0xbdedcb0e	-0.11610995
147	0xbc985f6d	-0.01860019
148	0xbcd3060c	-0.02575972
149	0xbc8eb25f	-0.017419038
150	0xbd064c55	-0.03278764
151	0x3d9738bd	0.07383869
152	0xbd6ffb74	-0.058589414
153	0x3dc82fa7	0.09774714
154	0xbdc2327f	-0.094822876
155	0xbac4c352	-0.0015011823
156	0xbc5dc072	-0.013534652
157	0x3d0dcd7b	0.03461979
158	0xbd991232	-0.074741736
159	0xbcd003a1	-0.025392355
160	0xbd85579d	-0.065108515
161	0xbe0b84bc	-0.13624853
162	0xba696092	-0.0008902635
163	0xbcd1d5f5	-0.025614718
164	0x3ad9f7bd	0.0016629618
165	0xbd83c968	-0.064348996
166	0x3da0df0b	0.07855042
167	0xbdea545e	-0.11441873
168	0xbca53b03	-0.02016974
169	0xbd8d2b87	-0.06893068
170	0x3d647ab2	0.055781074
171	0x3d2373d6	0.03990539
172	0xbde8b6f8	-0.113630235
173	0xbccef731	-0.025264354
174	0x3dab4ff3	0.083648585
175	0x3db1c811	0.08680738
176	0xbd5ecf7a	-0.054397084
177	0xbd8ebf3d	-0.069700696
178	0xbdb6d7fc	-0.089279145
179	0xbb01b1b9	-0.001978977
180	0x3db6aeed	0.08920083
181	0xbb0b0645	-0.0021213454
182	0x3d1e249f	0.038609143
183	0xbbf701d4	-0.0075380597
184	0x3dbba9eb	0.09163269
185	0xbda25c65	-0.07927779
186	0xbbf45cad	-0.007457337
187	0xbd7f07f1	-0.062263433
188	0xbdc2c465	-0.095101155
189	0x3db6574e	0.08903371
190	0x3d6ec120	0.058289647
191	0xbce00705	-0.027347097
192	0x3d039703	0.032126438
193	0x3e0ef11e	0.13959166
194	0xbe55cd58	-0.20879114
195	0xbd8140a9	-0.06311161
196	0xbae5d530	-0.0017534848
197	0x3d6a24af	0.05716389
198	0xbd14e749	-0.036353383
199	0x3dcd64c4	0.10028985
200	0x3df49930	0.11943281
201	0x3cbad802	0.022808079
202	0xbd265472	-0.040607877
203	0x3d50d347	0.05098274
204	0xbc84e85e	-0.016224083
205	0x3c9cbcd2	0.019133005
206	0x3d2a6458	0.0415996
207	0x3d8479d6	0.06468551
208	0x3ddd218b	0.107974134
209	0x3d9763bf	0.07392072
210	0x3d9e52da	0.077306464
211	0x3d05bf84	0.032653347
212	0xbaabc151	-0.0013103877
213	0x3d229b88	0.039699107
214	0x3d016eb0	0.0315997
215	0xbd685da0	-0.056729913
216	0x3be41456	0.006960432
217	0x3d95c098	0.07312125
218	0x3e989646	0.2980215
219	0x3e03d1a2	0.12872937
220	0xbd5bbe7e	-0.053648464
221	0x3dbdaedd	0.09261868
222	0x3cd1a6fe	0.025592323
223	0x3c828dd9	0.015936779
224	0xbe51a153	-0.20471697
225	0x3e49b33b	0.19697277
226	0xbaf056e8	-0.0018336447
227	0x3c98520c	0.01859381
228	0xbd521e0a	-0.05129818
229	0xbc5dd7c3	-0.013540211
230	0xbe0b36c4	-0.1359511
231	0x3dc904c2	0.098153606
232	0x3dee0d39	0.11623616
233	0x3cfea6d2	0.031085405
234	0x3ec05ddf	0.37571618
235	0x3dc40071	0.09570397
236	0x3c65b1e2	0.014019461
237	0x3d8a921b	0.06766149
238	0x3d13fc1c	0.036129102
239	0xbc22cab9	-0.009936028
240	0xbb614b69	-0.0034377223
241	0x3da513bc	0.08060405
242	0x3cd43bba	0.025907386
243	0xbcfc3d42	-0.030790929
244	0xbc43ab31	-0.011942671
245	0xbc84614f	-0.016159682
246	0xbd169932	-0.036767192
247	0x3c543d41	0.012954057
248	0x3d5f6e9d	0.05454885
249	0x3d6c58c6	0.05770185
250	0xbc928ad2	-0.01788846
251	0xbd2e8316	-0.042605482
252	0x3d8742ec	0.06604561
253	0x3d92577f	0.07145595
254	0x3c30f1c9	0.010799834
255	0x3b3d8d24	0.0028923238

bias f4 [64]
0	0x3d7f92ba	0.06239579
1	0x3d5ef8f0	0.054436624
2	0xbdc1aced	-0.09456811
3	0x3dd4a9b7	0.10383933
4	0x3d55aaae	0.052164726
5	0xbda52f44	-0.08065656
6	0xbbe1d1d3	-0.006891468
7	0x3de86a25	0.113483705
8	0xbd133231	-0.035936538
9	0x3e00ba1f	0.12571
10	0xbd073bb8	-0.033015937
11	0xbd1a4475	-0.037662942
12	0xbc3e21f9	-0.011604779
13	0x3d45f6d7	0.048331108
14	0x3cb78f07	0.022407068
15	0xbe024de1	-0.12725021
16	0xbdc7ccd8	-0.09755868
17	0x3c3817a1	0.011236102
18	0xbdf81403	-0.12113192
19	0x3e3bdfb9	0.18347062
20	0x3d913b79	0.07091422
21	0xbd875eba	-0.066098645
22	0x3e13a5bf	0.14418696
23	0x3de88405	0.11353306
24	0xbdd6910d	-0.10476885
25	0xbc6fe0df	-0.014641016
26	0x3daf3d73	0.085566424
27	0xbd28b377	-0.041186776
28	0x3d161e13	0.036649775
29	0x3df72402	0.12067415
30	0xbd6922fb	-0.056918126
31	0x3d306d96	0.04307326
32	0xbce19963	-0.02753896
33	0x3d3dcc07	0.046337154
34	0x3dfc8c31	0.12331427
35	0xbb95681b	-0.0045595295
36	0x3d74e514	0.05978878
37	0xbe011a4e	-0.1260769
38	0xbd4a4060	-0.0493778
39	0x3da22da1	0.07918859
40	0x3ddaeab2	0.10689296
41	0x3d1703b0	0.03686875
42	0x3dc39a33	0.095508955
43	0xbdda38b5	-0.10655347
44	0xbdf25957	-0.118334465
45	0xbd10bd00	-0.035336494
46	0x3d8a9cb3	0.06768169
47	0x3d89415c	0.067019194
48	0xbd60fe28	-0.054929882
49	0xbdb85e91	-0.09002412
50	0x3d42182d	0.047386337
51	0xbddf1f3d	-0.1089463
52	0x3dc9415d	0.0982692
53	0x3da92724	0.082594186
54	0x3ce8b3c5	0.028406033
55	0xbd433534	-0.04765816
56	0x3e4ec7d8	0.20193422
57	0x3c93020d	0.017945314
58	0x3e0820fc	0.13293833
59	0x3db1c39c	0.08679888
60	0x3e4683e9	0.19386257
61	0xbdfc6f26	-0.123258874
62	0x3d2b9914	0.041894034
63	0x3d02799b	0.031854253

weight f4 [32, 64]
0	0x3e10a3ee	0.14125034
1	0xbd417f56	-0.047240578
2	0x3d6a58dc	0.05721365
3	0xbc9bc859	-0.019016432
4	0x3d21d5bf	0.039510485
5	0xbde51457	-0.1118552
6	0x3e4313a5	0.19050463
7	0xbceb0ce6	-0.028692674
8	0xbdea0d1f	-0.11428284
9	0xbdf92c87	-0.12166696
10	0x3e4f8126	0.2026411
11	0x3eb68518	0.35648417
12	0x3cd09b7b	0.025464764
13	0xbe4b4802	-0.19851688
14	0x3e194d00	0.1497078
15	0x3c8d2d2c	0.017233454
16	0x3b59c5fa	0.0033229575
17	0xbd9ceb8b	-0.07662114
18	0x3e966e08	0.29380822
19	0x3de46284	0.11151603
20	0xbd51416c	-0.05108778
21	0xbd8719e7	-0.06596737
22	0x3ccb1297	0.024789138
23	0x3efa11cd	0.48841706
24	0xbbfd2030	-0.0077247843
25	0x3db4a9c8	0.08821446
26	0xbd959fc5	-0.07305864
27	0x3c91ea4c	0.017811917
28	0x3ebb2d55	0.36558023
29	0x3d89874b	0.06715258
30	0x3db568aa	0.08857854
31	0xbd3c5755	-0.045981724
32	0xbd923634	-0.07139245
33	0x3dba3de6	0.090938374
34	0x3e236018	0.15954626
35	0x3bece05e	0.007228895
36	0x3d98721b	0.07443639
37	0xbced0db0	-0.02893719
38	0xbec462c7	-0.3835661
39	0xbe332a3b	-0.17496578
40	0xbdd9908d	-0.10623274
41	0xbde57ea9	-0.11205799
42	0xbccdf99e	-0.02514344
43	0x3d8f1014	0.069854885
44	0x3d232875	0.039833505
45	0xbdd5be71	-0.104367144
46	0x3db9107c	0.09036347
47	0x3de1cc4e	0.11025296
48	0xbe7b61cb	-0.24549024
49	0xbd8a7936	-0.067614004
50	0x3d6eecaa	0.05833117
51	0xbd8b2ae5	-0.06795291
52	0x3de8dfd4	0.11370817
53	0xbd7ebf1b	-0.06219397
54	0xbe912c0a	-0.28353912
55	0x3eb8a84f	0.3606591
56	0xbda7514b	-0.08169802
57	0xbe3b79f2	-0.18308237
58	0x3e3e4f68	0.18584979
59	0xbdc0eee2	-0.09420563
60	0xbe6660d2	-0.22497872
61	0xbdb2181d	-0.086960055
62	0xbe8dcb4d	-0.2769417
63	0x3d86fee2	0.06591584
64	0x3cb8f1fb	0.022576323
65	0xbd96cab3	-0.073628806
66	0xbd365341	-0.04451299
67	0x3d82f8a2	0.06395079
68	0x3d8efb9e	0.06981586
69	0x3c3b8e85	0.0114475535
70	0xbdf1708c	-0.11789045
71	0x3d912c29	0.07088501
72	0x3d921159	0.07132215
73	0x3cc3b294	0.023888864
74	0xbd987d26	-0.07445745
75	0xbdc037a7	-0.09385615
76	0xbd1f6741	-0.03891683
77	0xbdec6685	-0.115429915
78	0xbccbf73e	-0.024898168
79	0xbd91e344	-0.071234256
80	0x3d98f058	0.07467717
81	0x3cf997c5	0.030467877
82	0x3c960eba	0.018317569
83	0xbcd1f6fe	-0.02563047
84	0x3db6b192	0.089205876
85	0xbd6adcfd	-0.057339657
86	0x3d4ffdf7	0.05077931
87	0xbdbdc212	-0.092655316
88	0xbdb33c06	-0.08751683
89	0x3e23e0ea	0.16003767
90	0x3da14dbc	0.07876155
91	0xbbbb6d0f	-0.005719788
92	0xbde8bfae	-0.11364685
93	0x3dfdc003	0.12390139
94	0xbcf0de36	-0.029402833
95	0x3d6fe907	0.05857184
96	0x3e160117	0.14648853
97	0x3db5868a	0.08863552
98	0x3d345107	0.044022586
99	0xbc525ace	-0.012839032
100	0x3ccbeb53	0.024892485
101	0x3b1e9356	0.0024196706
102	0x3ed1161d	0.40837184
103	0x3c55515e	0.013019888
104	0xbda71956	-0.08159129
105	0xbd099365	-0.033587832
106	0xbd382f4e	-0.04496699
107	0xbc477c50	-0.0121756345
108	0xbd59b1c9	-0.053148065
109	0xbdc33258	-0.09531087
110	0x3e620d05	0.22075279
111	0x3e0c4420	0.13697863
112	0x3ef073ba	0.46963292
113	0xbd91dd90	-0.07122338
114	0xbd42cb6c	-0.04755728
115	0xbda20055	-0.079102196
116	0x3df0fe80	0.11767292
117	0x3de9e959	0.11421461
118	0x3e11fd2f	0.14256738
119	0xbe823964	-0.2543441
120	0x3eb71ef5	0.35765806
121	0x3defc138	0.117067754
122	0xbc8fdc59	-0.017561125
123	0xbd177d07	-0.03698447
124	0x3e1ccec3	0.15313248
125	0xbdd4a473	-0.10382929
126	0xbcd208d9	-0.025638985
127	0x3e23696c	0.15958184
128	0xbe0066da	-0.12539235
129	0xbd4872db	-0.04893766
130	0xbc65e49e	-0.014031557
131	0x3d826af7	0.06368058
132	0x3c4a792f	0.012357994
133	0x3df0dc85	0.11760811
134	0xbd2cae4d	-0.042158414
135	0x3c64759c	0.013944056
136	0xbd163872	-0.036674924
137	0x3dc258d5	0.094895996
138	0x3d0d57ee	0.034507684
139	0xbe2ee216	-0.17078432
140	0x3c84721f	0.016167698
141	0xbe89cd90	-0.26914644
142	0xbcb2b7bb	-0.021816125
143	0xbd46d39e	-0.048541658
144	0xbc9b8145	-0.018982539
145	0xbd44a0db	-0.048004966
146	0x3e37cec2	0.17949966
147	0x3e4ce207	0.20008098
148	0x3db33262	0.08749844
149	0xbc8f0e0f	-0.017462758
150	0x3b8e1595	0.004336069
151	0x3e8785b1	0.26469186
152	0xbd2bb83b	-0.041923743
153	0x3e2fb4be	0.17158791
154	0xbd812054	-0.06304994
155	0x3d9aa3be	0.075507626
156	0xbcc114ec	-0.023569547
157	0xbdb14432	-0.08655585
158	0x3d5b8503	0.053593647
159	0xbbd8868f	-0.0066078375
160	0xbb4711e8	-0.0030375663
161	0xbe45ccae	-0.1931636
162	0x3da8d294	0.082432896
163	0x3d0f45ba	0.034978606
164	0x3e0dfbd2	0.13865593
165	0xbd1fd35d	-0.03901993
166	0x3eda33ab	0.42617545
167	0xbe265e5a	-0.1624693
168	0xbebdc59d	-0.3706483
169	0x3dd982a5	0.106206216
170	0x3daa56b3	0.08317318
171	0xbd263f22	-0.040587552
172	0x3dd7308e	0.10507308
173	0xbd29f3fa	-0.04149244
174	0xbcba8125	-0.022766659
175	0x3d676c01	0.056499485
176	0x3e61f526	0.22066173
177	0x3dc9cb68	0.0985325
178	0xbda4fd76	-0.08056156
179	0x3db22ca1	0.086999185
180	0xbceadb1c	-0.028668933
181	0x3d6adee4	0.05734147
182	0x3d9178c5	0.07103113
183	0xbe495a40	-0.19663334
184	0x3e9e2b22	0.30892283
185	0x3d20d789	0.03926805
186	0xbcb89b82	-0.02253509
187	0xbd71e3a3	-0.059054982
188	0xbd853132	-0.06503524
189	0xbb97275d	-0.0046128468
190	0xbe9c6ff0	-0.30554152
191	0x3dfbb183	0.12289717
192	0x3c899340	0.016793847
193	0x3dbcf30e	0.092260465
194	0x3d5f26c7	0.05448034
195	0x3dd52e58	0.1040923
196	0x3d9afe75	0.07568065
197	0x3dc37981	0.095446594
198	0xbad3419e	-0.0016117578
199	0x3de60085	0.11230568
200	0xbdce9205	-0.10086445
201	0x3e25145a	0.16121045
202	0x3c333710	0.010938421
203	0xbe2b584b	-0.167329
204	0xbbacf456	-0.0052781506
205	0x3d73bd29	0.05950657
206	0xbdf06c37	-0.1173939
207	0x3cc0f2b3	0.023553228
208	0x3d8ab956	0.06773631
209	0xbcd4c809	-0.02597429
210	0xbd854c4b	-0.06508692
211	0x3d643f87	0.055724647
212	0x3d4a0dbc	0.049329504
213	0xbc951fbf	-0.018203614
214	0x3e0acfc8	0.13555825
215	0xbf8e10b3	-1.1098846
216	0x3d6a8498	0.057255358
217	0x3cf7d7ac	0.030254208
218	0xbdbb89f3	-0.09157171
219	0xbd092c76	-0.033489667
220	0xbf3658f6	-0.71229494
221	0xbd53d47b	-0.05171631
222	0xbd9b8033	-0.075928114
223	0xbd9cf6e6	-0.0766428
224	0x3d066253	0.032808613
225	0xbd2fcf49	-0.042922292
226	0x3d625c93	0.055264067
227	0x3d3aa0ef	0.045563634
228	0xbd906821	-0.07051111
229	0xbdc86b44	-0.09786084
230	0xbf63efc0	-0.89037704
231	0x3e446e72	0.19182757
232	0xbe35cdc7	-0.17754279
233	0xbd3b4f4c	-0.04572992
234	0x3d7c3176	0.061570607
235	0x3dbfa67b	0.093579255
236	0xbc60fd53	-0.013732272
237	0xbc0af7bc	-0.008481916
238	0xbd7626eb	-0.06009571
239	0xbccc0afe	-0.024907585
240	0xbe83766c	-0.25676286
241	0x3d4e4ede	0.050368182
242	0xbdd5afc5	-0.10433916
243	0xbd8e5a8e	-0.06950866
244	0x3d70aec3	0.058760416
245	0x3c41cf35	0.011829187
246	0x3dfb8d13	0.12282767
247	0xbea2bec0	-0.31786156
248	0x3e8846dc	0.2661656
249	0xbc951864	-0.018200107
250	0x3db05a96	0.08611028
251	0x3e00c260	0.12574148
252	0xbd54a941	-0.051919226
253	0x3d8d2706	0.06892209
254	0x3e8ba9b8	0.27277923
255	0xbbf35c85	-0.0074268007

bias f4 [32]
0	0x3b8bccca	0.004266356
1	0x3d3b7546	0.045766138
2	0xbbf4230e	-0.007450468
3	0x3d08b02d	0.03337114
4	0xbd90c07e	-0.07067965
5	0xbe026156	-0.12732443
6	0x3db20a22	0.08693339
7	0xbc32401f	-0.0108795455
8	0x3a467c46	0.0007571619
9	0x3b514544	0.0031932155
10	0x3ceae53d	0.028673762
11	0x3e1374dc	0.14400047
12	0x3dc48fc5	0.09597734
13	0xbcca3d44	-0.024687417
14	0x3e4c8686	0.19973192
15	0xbd56a88e	-0.05240684
16	0x3d39b86f	0.045341905
17	0xbdf266a0	-0.118359804
18	0x3dada56d	0.08478818
19	0xbd43b0c5	-0.047776002
20	0x3dcd872f	0.1003555
21	0xbe34c2e4	-0.1765247
22	0x3e2227e1	0.15835525
23	0xbd4ad9ab	-0.04952399
24	0xbcfb28db	-0.03065913
25	0xbd5fbee0	-0.054625392
26	0xbd417568	-0.047231108
27	0x3dc78e8b	0.09743985
28	0xbda7922f	-0.08182179
29	0xbcbe9f01	-0.023269178
30	0x3dc15e76	0.09441845
31	0x3da9d167	0.082918935
