fNN_cpu_64.pt (torch, 294604 bytes, 14 tensors)

weight f8 [128, 4]
000000 c2 76 10 2d fb 1f c4 3f 06 26 b2 30 cd 82 c6 3f
       0.15722598743825783 0.1758667457364
000010 20 94 9e e6 b8 69 d8 bf 7e 67 08 94 e4 d4 cc bf
       -0.3814527752059025 -0.22524697521367537
000020 ee 2d 90 e1 af 53 bf 3f 81 00 91 7a 5f 7d b6 bf
       0.12237071282304843 -0.08785053961128321
000030 92 10 64 eb f1 89 bf bf f8 61 94 9f 24 74 bc bf
       -0.12319862362716297 -0.11114720245348753
000040 6c fb 71 df f6 31 d1 3f 98 b4 50 fc f5 2c d8 3f
       0.26867458172630765 0.3777441944137734
000050 c6 a4 00 9e 86 c9 b2 3f d2 ee 5c 66 0a 90 a5 3f
       0.07338754041178949 0.04211456775234769
000060 b1 d2 ba 21 74 59 db 3f 30 7d 01 ce 0e 03 ba bf
       0.4273348168747289 -0.1016091587966812
000070 8c 48 a1 0d dc c2 b6 3f 9a 24 76 f1 1a f3 c7 bf
       0.08891082127346034 -0.18710648336517438
000080 d4 78 62 e0 f4 01 dc 3f a7 6f 44 ae 56 bc bf bf
       0.4376194182640465 -0.12396756891797499
000090 53 07 d4 0b 7b 0f a4 3f 8e f8 65 b8 4f 35 82 3f
       0.039180607980610425 0.008890745940103775
0000a0 ac 98 2f 3e 00 68 ba bf ed 6a a5 7e df 41 d6 3f
       -0.10314942854128856 0.34777057044782006
0000b0 e8 9b 0e b5 98 a7 ce bf d7 10 1a 42 0a 40 cc 3f
       -0.23948963967015335 0.22070434787395385
0000c0 e4 0c 03 7f ac 63 ba bf 03 a5 b3 44 59 91 a1 3f
       -0.10308340168835489 0.034312047611658535
0000d0 da 9d 8e ba ee 14 9d 3f eb 19 4a cd dc 67 df 3f
       0.028400163780728828 0.4907142643718589
0000e0 d1 e2 90 70 4a b3 bb bf c3 e8 f2 71 84 70 74 3f
       -0.10820451019470602 0.004990117419931109
0000f0 83 6a 18 08 01 f8 c4 bf 8c 41 c1 b4 ab 6b b7 3f
       -0.1638184823539924 0.0914866749092253
000100 e6 6f 1a f6 d1 4c c5 bf b3 32 a6 2d 00 b6 b0 3f
       -0.1664068652797816 0.0652771102379102
000110 7f 7a d9 60 ad 88 cd 3f 61 25 42 c9 58 d0 cc bf
       0.23073355893116695 -0.2251082403857181
000120 b4 31 04 28 55 82 bd 3f ac e8 60 a2 5d 66 e0 3f
       0.11526996828997121 0.5124958201843319
000130 f2 e7 84 d9 0e dc c9 bf 20 84 ca de 1c 7f a7 3f
       -0.20202813740780773 0.04589166850679072
000140 e2 d5 7d 36 91 97 ce bf 7e 1c f4 51 55 eb d2 3f
       -0.23900046501846278 0.2956136036231739
000150 40 08 d9 9d af 7c bb 3f c8 82 c3 2b 93 1d 95 bf
       0.10737130740838641 -0.020620631738782064
000160 0c 17 3b ef 9f 44 c0 bf f7 b2 9f 27 9d 16 96 3f
       -0.12709426099007037 0.021570640128561327
000170 33 f0 16 32 46 57 99 3f 79 36 57 00 9d 7c c7 3f
       0.02474698715899155 0.1834903957045986
000180 f9 4c 69 0f 08 b5 c3 bf 1a 09 43 61 93 d6 c9 bf
       -0.15396214249140153 -0.2018608307753958
000190 4c fd 10 77 74 8c d1 bf 04 ac 93 e6 a0 89 c8 bf
       -0.2741976893193694 -0.1917000890601629
0001a0 54 d4 3a db c1 de db bf 59 37 e2 c9 a9 ba ab 3f
       -0.4354710236469306 0.054158502477646926
0001b0 75 a1 d2 f9 94 65 61 3f b7 5e 98 7c 15 89 d0 bf
       0.002123633354660532 -0.25836693923472914
0001c0 a8 45 f4 78 fe 36 c5 bf eb a1 8c 4a da fe d4 bf
       -0.16574078470197873 -0.3280549743672327
0001d0 89 80 a8 44 f7 fb ce bf 0c 7d 8c ad 29 ea c8 bf
       -0.2420643887753651 -0.19464608167707131
0001e0 b7 19 f6 fd 82 90 99 3f 89 ed c3 55 55 9c b9 3f
       0.024965330839700175 0.10004170745735598
0001f0 98 4e 35 4a e3 ae b8 bf bf ec 53 73 0b 9f d0 3f
       -0.09641857682918908 0.2597073198555328
000200 bf 1f 83 75 41 0a df 3f cd 80 25 1b b9 99 b3 bf
       0.4850009582119092 -0.07656437790638222
000210 8e 8c 3d f0 e2 d6 c3 bf 31 38 78 86 9e d1 d2 3f
       -0.15499531488885449 0.29404414302632903
000220 b4 04 9b 3c 03 bd c6 3f 0c f7 e8 84 99 dc db 3f
       0.17764320811514767 0.4353393361997042
000230 78 88 b0 87 b5 4a c5 bf da ab 8b f5 23 26 c2 bf
       -0.16634244084804428 -0.14178895463496027
000240 83 e5 32 3a e7 b5 a0 3f c8 d1 1a 75 54 e5 d4 3f
       0.032637811521861536 0.3264971870042044
000250 a8 ec 21 53 52 80 dd 3f 82 b4 cd 35 11 8c d5 3f
       0.4609571277466764 0.336674025099292
000260 3e 72 e6 86 9c 4d ae bf 63 a2 43 2c 3f aa d3 3f
       -0.05918587824564668 0.3072660381572289
000270 5e 7c 83 a2 d7 e7 c5 3f 6e 16 ba 33 f3 53 c0 bf
       0.17113776622042826 -0.1275619509289529
000280 cf bc a5 e9 7e 9d db 3f df cc 72 17 57 dc d1 3f
       0.4314877778733263 0.27907349862944203
000290 08 94 d0 59 ce 72 d7 3f f9 5a 24 bc 14 1e db bf
       0.3663822056863073 -0.4237109982799861
0002a0 4c de fd 1f 3b 9c 72 3f 5d 89 e0 1a ef 02 ea bf
       0.004543524701027101 -0.812858154768303
0002b0 c1 c2 48 31 ed 95 e3 3f ef 50 35 9d e6 19 ca 3f
       0.6120515787680106 0.2039154307955253
0002c0 f7 04 d4 6f f6 bc dc 3f 2a 85 65 f7 b5 ef d6 bf
       0.44903336449358683 -0.35838078651257155
0002d0 67 2e 4b c5 60 8b ca bf 3a 62 75 76 bb dc d8 3f
       -0.2073784793231994 0.3884724289723952
0002e0 56 5f 9e e6 1e 70 d0 3f 7a ed 40 14 c7 99 d1 bf
       0.25684330483772067 -0.2750108430661481
0002f0 49 3b 72 eb a9 15 c9 bf 38 75 b5 ea e3 4e d2 bf
       -0.19597362514874764 -0.28606508179457846
000300 e1 5f 58 e0 71 9f c7 3f 0c 41 65 3e ba e3 d5 bf
       0.18455337004047492 -0.34202438443482275
000310 5e 85 a1 fc 9b ff d3 3f f6 df 47 3e c8 f6 d0 3f
       0.3124761550044094 0.2650623901567991
000320 13 c9 5a 87 1c da 45 bf 43 a8 1d 0c 95 c9 e7 3f
       -0.0006668700504717538 0.7433572041165991
000330 77 c9 2e a9 c6 6e e5 bf f1 2a 99 ac 3e 94 c7 bf
       -0.6697724632597745 -0.18421157291080406
000340 16 7a c5 57 33 91 67 bf 7e b6 e9 a0 93 7a dd 3f
       -0.0028768542089630074 0.4606064864554823
000350 d7 29 3c f4 cc 56 d9 3f 41 c1 3e f2 db f2 ef bf
       0.39592288828921823 -0.9983958941793746
000360 4f ea 04 58 fd ec d6 bf 0a 85 49 b5 17 52 b1 bf
       -0.3582146987497809 -0.0676588838191671
000370 af 1f 21 cb 33 26 cc bf 0e 89 d8 d4 e8 cd d8 bf
       -0.2199158422320102 -0.38756771836973847
000380 eb 29 ab 85 07 d0 db 3f 9b c1 71 f2 ca 39 be 3f
       0.4345721059186462 0.11806934756328362
000390 04 89 93 4a 7e e5 c4 bf 69 41 c9 ed 47 c1 ce bf
       -0.16325358048840866 -0.24027346716548983
0003a0 14 97 3c 31 0c 0e b9 3f 37 81 ef 46 25 73 c3 3f
       0.09787059976642026 0.15195146526003508
0003b0 87 76 a4 18 ac ef 92 bf 9e ae 7b 6f 29 e0 e0 3f
       -0.018492402080588135 0.5273635079770036
0003c0 e5 23 c3 99 e2 51 d6 3f 57 b0 ad 46 00 4f d3 bf
       0.34874787345739683 -0.3016968431682065
0003d0 8b 6c 0e e2 cf 57 c1 3f be a0 71 a4 e5 62 d4 3f
       0.13549231088550004 0.3185361963173924
0003e0 43 dc 6e 73 16 96 d1 3f d9 87 87 ae e3 0f d2 3f
       0.2747856261516441 0.2822198109043917
0003f0 91 1b e4 b7 90 67 d9 3f d4 64 dc 4c e3 19 c1 3f
       0.3969461246310227 0.13360253575300496
000400 8a c2 7a 5f cd bd bb 3f 3b 55 1b 7f e4 d1 d7 bf
       0.1083649023155521 -0.37218582546968876
000410 eb 28 7a 94 17 e4 d4 3f 30 94 f7 a2 ca bc 9c bf
       0.3264216375324753 -0.02806393260643264
000420 d2 e9 74 d4 c0 16 86 bf ab dd 6d 4b d6 e7 b5 3f
       -0.010785585864700051 0.08556880322964015
000430 63 e4 3c 11 2c 1f c6 3f 50 6b 43 13 c3 5f 92 3f
       0.17282629815761927 0.01794342808794208
000440 a9 e7 f7 95 0f 73 e0 3f 13 6c 2f 3b a6 92 d2 3f
       0.514045517832746 0.2902007654171836
000450 53 1e f5 1c 88 a7 d0 bf 2d 00 47 b8 a0 36 a0 3f
       -0.26022532298927564 0.03166677712897612
000460 c4 30 00 64 9e 63 ba bf e3 ce 41 5b 2a ff db 3f
       -0.10308256093429963 0.4374490634138352
000470 ce 34 72 08 91 6c d0 bf 84 91 9b a6 a5 f6 da 3f
       -0.2566263754350303 0.42130414266855376
000480 b9 38 68 83 4b 37 d5 3f a2 54 f9 02 da c4 be 3f
       0.33149993736959577 0.12019121716123718
000490 10 d8 46 5d c7 cf c5 bf cb 02 63 b6 b1 e8 b7 3f
       -0.1704034047558598 0.09339438154985229
0004a0 06 de f2 3f f2 54 c7 3f 56 72 dd 68 81 0b ac 3f
       0.1822798549890054 0.0547752800473275
0004b0 40 d8 8b 97 7d 3d 79 bf f2 54 3b 8a 5a a6 98 bf
       -0.006162157624876541 -0.024072088896748896
0004c0 3e 8f 5e cb 81 43 c8 3f 31 58 72 21 7b de d3 bf
       0.18956015043397118 -0.3104541613223573
0004d0 6d 26 c8 18 cb 5e be bf 78 7b 76 7a f7 63 9f 3f
       -0.11863393168473531 0.030654780244386143
0004e0 70 f7 8c b6 fa 32 d8 3f 5e 19 6b 90 ce 88 d2 bf
       0.3781115324708173 -0.2896000299773699
0004f0 4e 0c 57 b2 a8 e4 ca bf 9b 1d 43 05 70 95 c4 3f
       -0.21010311801919318 0.16081047303144377
000500 d4 8f 45 63 97 08 d5 bf b5 f2 a9 65 d1 45 c9 3f
       -0.3286493749094437 0.19744317497306488
000510 f4 49 62 61 74 a9 c4 3f f7 f0 7e a5 b2 d3 c7 3f
       0.1614213443286442 0.18614800530293227
000520 2e 70 ee a9 2c 5f bf bf f4 8a 1e 05 71 58 c4 bf
       -0.12254599713054468 -0.15894901990858268
000530 c3 73 81 f4 9b f7 b6 bf fe e6 bc 2b 54 0c d7 bf
       -0.08971571654679082 -0.36012748976973785
000540 0a 72 3d 40 78 da da bf d2 f7 a8 e0 68 69 c2 bf
       -0.41958433412017426 -0.14384184808471773
000550 34 1c a6 60 1a e3 d8 bf a6 26 78 30 b5 f4 cc bf
       -0.3888612693630791 -0.22621788851420382
000560 23 d1 9a 51 79 d9 ae 3f ac f0 73 b4 20 e5 d6 3f
       0.06025294419433382 0.3577348482356324
000570 66 35 c2 97 78 b5 d8 3f ea 0e 9c 9e b6 8e c0 bf
       0.3860761148469777 -0.12935526604279995
000580 43 c9 56 d8 34 50 b0 bf 6f d8 53 70 1e f6 b2 bf
       -0.06372385293687892 -0.07406797640200734
000590 d4 8f 10 17 84 9e b8 3f d8 d9 91 2a 18 ee d6 bf
       0.09616876185515305 -0.35828212887954924
0005a0 6b 4b 99 5c e2 68 d4 bf 0d 66 d6 ef 31 29 d1 bf
       -0.31890162508823633 -0.268139347282699
0005b0 a5 5d 52 d7 49 e5 a3 3f 50 b8 bd f9 3e e0 d3 bf
       0.03885870698394037 -0.3105618895414226
0005c0 6f dc 8a 4a 8f 1e d6 bf 5d c9 b0 6b 60 f1 cf 3f
       -0.34561521796735567 0.24955373056725252
0005d0 5a ae 9a ec 06 06 d5 3f 6a 04 07 b5 33 72 ba 3f
       0.32849286180382864 0.10330508393873719
0005e0 7b 29 82 cf ad 94 b9 3f 5c fe 42 71 b0 3c e0 3f
       0.09992491069912106 0.5074083530561881
0005f0 e5 80 c7 1f e0 79 c2 bf 2e 2e 7d 69 c5 4b d2 bf
       -0.14434434463237902 -0.28587470342310695
000600 8d 09 bf 5f 5e 01 ae 3f d4 4c 54 3b 0c 23 c0 bf
       0.05860419195916498 -0.12606957337320657
000610 32 2b 10 53 1a 7a b8 bf 19 4d 15 36 43 3d ab 3f
       -0.09561314132603796 0.05320177111812025
000620 ed 56 a8 b5 e9 62 ab 3f 8b 05 aa 7f 49 02 ef bf
       0.05348902075290405 -0.9690291875305531
000630 30 20 1e 33 b2 fa d6 bf e5 87 3c 1d b7 c0 e1 bf
       -0.35905127517662816 -0.5547748156570803
000640 e8 dc c8 d1 e6 f3 dc 3f fc 36 a6 9c 3d cb d1 bf
       0.4523865746190965 -0.2780298261430827
000650 ef b1 e9 04 1d 14 ce 3f ec c3 69 c8 bc 34 9d bf
       0.23498881091963095 -0.028521489841697376
000660 cb 44 70 cb 60 67 86 3f 9a b4 6a 76 15 77 e5 bf
       0.010939365585758051 -0.6707866013363344
000670 2f c5 f0 9b 79 ea b5 bf 39 f4 9c 82 b0 53 e4 3f
       -0.08560905511037185 0.6352160025632038
000680 d5 61 a5 b0 35 bb c1 3f dd 2a ee 75 cf 4f c3 bf
       0.13852568745893615 -0.15087311991040667
000690 20 66 b8 fe 5b d5 c1 3f a0 55 7e a5 7d 16 d5 3f
       0.1393237107993608 0.32949772988771464
0006a0 03 dd b9 89 4b 7c a1 bf 2c 84 03 35 53 1a cb 3f
       -0.03415142112947402 0.21174087608872705
0006b0 c4 4d 48 38 92 5f da 3f a1 59 de bc c8 c5 d0 bf
       0.4120832013734026 -0.26207178539461934
0006c0 1f f9 fb 49 63 b3 d4 3f 45 49 ff 1b d0 7b ce 3f
       0.3234489653113019 0.23815347067881923
0006d0 c4 63 94 d2 c2 73 b7 3f 48 43 ab 39 55 b8 7c bf
       0.09161012307266875 -0.007011731063088451
0006e0 fd 37 ff 41 45 53 d4 3f 5d 0c 25 0b 40 65 be bf
       0.3175824303151556 -0.11873245498741043
0006f0 4f d1 82 a7 16 7d cb 3f f0 a7 41 2e 60 9d c5 3f
       0.21475489787338595 0.16886522539726867
000700 12 0a 61 3e fd 94 bb bf fd b4 94 2a b4 ee b0 3f
       -0.10774214528013484 0.06614233054706982
000710 79 57 f1 69 30 66 d5 3f a5 c3 f8 2d 65 cf de 3f
       0.33436212869616316 0.48140840043475414
000720 f0 1c 79 c9 80 82 cc bf 06 3f fd 05 95 65 d0 bf
       -0.22273263776353458 -0.25620008072745326
000730 91 89 97 93 1d c6 d5 bf a9 f8 e6 9b 4b 7d a9 bf
       -0.34021701253200215 -0.04978405263999381
000740 7b 54 7e 24 e8 95 d4 bf 39 b9 4c cb 99 14 d2 3f
       -0.3216495853788001 0.28250737050520375
000750 64 2d 59 cc 74 a2 d3 3f 07 b3 52 04 01 63 a6 bf
       0.30679054218190616 -0.043724090364184724
000760 96 4d c9 73 6e 2e ba bf 23 d5 23 cb f3 99 c3 3f
       -0.10227098776640839 0.15313575190490622
000770 7d 51 5e 6e 5c e7 c8 bf 7d 35 14 06 cd ef bc bf
       -0.1945605791958193 -0.11303407095348024
000780 5d b1 c7 da 43 f6 bf bf 8d 3b 01 e5 23 77 e7 bf
       -0.12485145655927483 -0.7332934830427448
000790 a9 06 bb c3 d4 6a c7 3f a7 74 6a 8b bd 08 de 3f
       0.18294772679478413 0.46928347220257155
0007a0 6d 84 e1 8c 74 a2 d2 bf 1c a1 b3 50 c1 0a 91 bf
       -0.29116548307326334 -0.016642590094222517
0007b0 5a 1c b9 5e fc cf e6 bf 8e e0 40 03 b4 a3 d0 3f
       -0.7128888940868692 0.25999164884297776
0007c0 74 37 89 a0 ed 51 c9 3f 71 48 8b 5f e7 d4 48 bf
       0.19781275118515007 -0.0007578019859357921
0007d0 7d ec 31 dd 2c c6 c4 bf f0 8e cb 2b 28 ae d5 bf
       -0.16229782867944556 -0.33875469471807573
0007e0 37 d7 91 4b 6c cc 9b bf 31 88 90 3a 43 11 d8 3f
       -0.027146999466331336 0.3760536262435635
0007f0 f4 cc df 1d 4c 20 c3 bf 89 09 1d 70 48 89 9e bf
       -0.1494231363172741 -0.02982056793485691

bias f8 [128]
000000 8a ab e7 8c 21 3a 85 3f 26 59 5c 3f ea 58 db bf
       0.010364782440736926 -0.4273019427067929
000010 72 f9 52 68 8d a9 c9 bf 19 e5 a2 53 66 f3 93 bf
       -0.2004868277926551 -0.01948318372226252
000020 7c 49 47 9c 70 36 d4 3f 55 da 78 9c 87 78 be 3f
       0.3158227468640218 0.11902663774604012
000030 72 43 85 e8 7d ad d1 bf a4 8d f8 46 43 57 d3 bf
       -0.27621410090528464 -0.3022010987353616
000040 59 b9 ab 1a ee a9 d2 bf b9 1c 7d 77 14 5a b7 bf
       -0.29162170986719144 -0.09121826092915598
000050 51 ee bf 74 62 6e cb 3f f4 da a0 ae 2a 3b da bf
       0.21430617046995562 -0.40986125043438837
000060 14 89 a4 f7 14 c4 d3 bf ff ef 58 79 09 79 d2 bf
       -0.3088428896318345 -0.2886375126870461
000070 04 a5 e5 6e f7 40 73 bf 49 f7 49 69 12 e4 d7 bf
       -0.004700628791718179 -0.37329540521738075
000080 2a dd fd b1 e6 3b b6 bf 73 fb 68 fd 0f be d1 bf
       -0.08685151906489766 -0.277225491972721
000090 bc 26 ca c4 be 06 d9 bf 72 f3 82 1b 9e 43 99 3f
       -0.3910366937421761 0.02467200320164715
0000a0 c7 d2 37 5b 6c 79 9b bf f8 ae 91 30 b1 c8 92 3f
       -0.026830380504139464 0.01834370478574862
0000b0 d1 48 fb 9b cf 46 cc 3f e7 ff 62 17 a8 75 d2 3f
       0.22091097942627028 0.2884311893831168
0000c0 fc 82 6b 6f e9 bf c6 bf 96 f6 94 c6 e1 5c 7d bf
       -0.1777316850703058 -0.007168657242173323
0000d0 5c b8 dd 58 d6 22 a1 3f a4 d7 a1 4c 17 6a d1 bf
       0.03346891245642844 -0.27210028155911403
0000e0 fc 96 74 ed cb b1 c2 3f 75 26 0c 10 0e ad db bf
       0.14605092138770448 -0.43243743483672087
0000f0 1a 60 d5 1d ee f1 d8 bf ec 51 40 13 76 07 d2 bf
       -0.389766244062686 -0.2817053974152077
000100 7b 33 49 31 88 2d a4 bf a3 59 6a 32 c7 86 d1 3f
       -0.03940988160738975 0.2738512031877695
000110 71 b7 96 fb cb c6 c6 bf d6 ff e3 eb ea f8 a0 bf
       -0.17794179710966376 -0.033149091048471455
000120 7d b5 d8 dd 28 4f 86 bf 52 16 3e 29 86 11 96 bf
       -0.01089317252179955 -0.02155122400974669
000130 15 7d b1 42 48 08 d7 bf 79 b3 f5 dc 79 c7 b6 3f
       -0.359880509500685 0.08898126263166074
000140 04 81 26 2a 3f 19 c9 3f ff 4c 00 50 42 58 d9 bf
       0.19608296926617907 -0.39601190388312085
000150 e3 6c 2b 59 71 5a bc bf ee ee 12 09 29 31 d1 bf
       -0.11075504710190702 -0.26862550626877535
000160 b0 37 ac 6d 5a 66 be 3f 7a 8a ee 2d 3a ad d6 bf
       0.11874928643757587 -0.3543229530861606
000170 96 0d 62 33 90 17 cc 3f f1 b9 1a c3 38 5c d7 bf
       0.21946909436165346 -0.3650037675205616
000180 9b 44 77 ba ad ef d8 bf 72 37 37 02 ad f5 ba 3f
       -0.38962882241782787 0.10531121543973912
000190 a6 ef ec 40 db e8 be 3f 4c 1f d6 fa 6c 80 85 bf
       0.12074060759635916 -0.010498858838004964
0001a0 99 65 d7 6c 31 30 d3 3f f5 89 9b a1 56 27 d1 bf
       0.29981647137682327 -0.26802602560033445
0001b0 a3 2d fa 54 8f aa d1 bf 46 45 4d 01 17 8a c3 bf
       -0.27603514956055103 -0.15265166820112536
0001c0 48 51 c7 6c e9 af 9f bf b4 0c 1d 9c 76 7a d5 bf
       -0.030944487823789474 -0.33559956784683753
0001d0 23 25 ac e9 da f9 c1 3f 09 a9 43 23 21 0c ce 3f
       0.14043747339045706 0.2347451612652736
0001e0 73 4d 84 d3 e7 ef c0 3f 09 8b 08 15 48 e9 c2 3f
       0.13232133701294976 0.1477441885663995
0001f0 3d 31 b5 bf 3e 34 ca bf f3 f3 3d 4d 55 e1 a1 bf
       -0.20471939430934497 -0.034922280959086914
000200 4b fb 70 1f 58 d8 cb bf e0 55 85 0d 2b 99 c7 bf
       -0.21753980193349273 -0.1843618217487082
000210 c8 22 2b 23 dc 73 ba bf 82 5b e1 64 51 87 c7 3f
       -0.10333038195234245 0.18381707597538016
000220 f0 ff 83 23 c3 1b ca bf 57 70 f1 f0 55 6d d2 3f
       -0.20397223695908862 0.2879233220062409
000230 0a 33 61 80 23 96 d7 bf a0 bf c5 00 35 0b ad bf
       -0.36853873765066736 -0.05672612795285592
000240 82 6f b6 77 3a f1 cc 3f a0 2d f3 00 8f fc c9 3f
       0.22611170621246052 0.20301997705824437
000250 25 c6 e6 21 85 8c af 3f f7 16 8d 87 57 54 c7 3f
       0.06161895788990205 0.18226141089160539
000260 45 d6 e8 52 34 4a d5 bf 21 1e 72 e0 10 14 be 3f
       -0.33265407654412044 0.11749368171342002
000270 40 ad 7c 5d bb d1 bb bf 4c 0c 85 a1 a7 4a b6 3f
       -0.10866900474927821 0.0870766419730426
000280 27 b9 3c a9 f3 13 d3 bf 64 17 f5 e9 50 f8 bc 3f
       -0.2980927612978967 0.1131640025315313
000290 b4 58 7c 41 17 f7 cb 3f 73 18 db f3 e9 09 c5 bf
       0.2184781141047033 -0.16436504752181555
0002a0 b1 ee b4 e9 1a a5 d0 3f d3 c1 b9 d8 7d 6b b2 bf
       0.2600772173206947 -0.07195269147064857
0002b0 3b 6f 85 b8 f1 81 d7 bf 70 b3 4c 29 38 4a d7 3f
       -0.36730616588259907 0.3639049914661916
0002c0 a3 dc db fe 6f b3 b6 bf ff 45 fe 5c c5 5a d4 bf
       -0.08867549869670426 -0.3180402191293012
0002d0 d0 ec a5 64 0a 26 90 bf 6a e9 f7 dd f6 3d d5 3f
       -0.015770113366198768 0.33190700222589575
0002e0 f1 86 eb a6 ea 16 cd bf 0e 72 96 59 d8 32 c5 bf
       -0.2272618594206999 -0.16561416983030636
0002f0 6a 43 ed 85 61 29 d1 3f 58 77 18 20 af fd 9d bf
       0.26815069273748426 -0.029288040479620164
000300 56 72 2c 6d 77 1a cf bf 1f 30 40 bc be 4c c3 3f
       -0.2429951937746348 0.1507795733635939
000310 3f 4d 84 51 4d 15 cb 3f 1c 44 53 ec f4 1d c9 bf
       0.21158758621514015 -0.19622670687979926
000320 42 0d 1a 9f 70 21 db bf 4a d1 00 23 43 b2 d1 bf
       -0.4239160112121746 -0.2765052644565641
000330 02 d1 18 e1 58 41 d9 bf 07 16 67 f2 23 61 d4 bf
       -0.3946134756290719 -0.31842898056160646
000340 ba 61 9c 97 ac 94 ca bf ad 76 34 c5 b9 9d b2 bf
       -0.20766217615961385 -0.07271920265744809
000350 47 45 19 30 5a 9d d1 bf d5 98 47 c3 72 96 c4 bf
       -0.2752290219987867 -0.160841317511944
000360 1a 75 ed b2 18 17 cc bf e5 4e 3b 2e 24 be c2 3f
       -0.2194548486394659 0.146427652906474
000370 39 e5 ed 56 09 7a bd bf d4 d7 46 fc 6f 11 d2 3f
       -0.11514337894722794 0.2823142970695447
000380 cb c7 30 67 22 c7 d5 3f 74 10 dd b9 6d 47 c3 3f
       0.34027919842912685 0.15061732840888775
000390 e7 61 25 7e 03 b0 aa 3f 77 eb 63 8c 55 1e c3 3f
       0.052124127529797275 0.14936322550769507
0003a0 12 4a 68 b7 38 e8 d9 bf 86 94 2f db c5 64 cd bf
       -0.40479867850186324 -0.22963784410891125
0003b0 7a 81 2d f8 0c af 8c bf 5b 7b 12 0e 92 ac c5 bf
       -0.01400575764063271 -0.16932893454665074
0003c0 09 7f 23 9d 46 3d c8 3f da f7 e0 25 16 8a d4 3f
       0.18936999008928293 0.32092813204860493
0003d0 89 8c 4a 03 a7 f5 50 3f e6 31 b6 7b 03 55 d5 bf
       0.0010351305947231845 -0.3333138187524852
0003e0 79 a7 92 66 22 4e d3 3f 32 1a c2 12 a1 97 d0 bf
       0.3016439439476169 -0.25925471145493184
0003f0 45 7d cd f1 c6 39 d3 3f 9f 26 3d e2 36 96 cf bf
       0.30040143598121843 -0.24677167937106945

weight f8 [128, 128]
000000 d9 0f 86 8e fa c3 90 3f c1 a9 51 3e 31 3d ad 3f
       0.016372599553065335 0.05710748563508928
000010 dd af 8a 4d bc 3d b1 bf ef 2d fa dd 0e 92 80 bf
       -0.0673482598601249 -0.008091083668907621
000020 34 07 25 ba df dd b7 bf 75 b2 2a 6e cd ef 31 3f
       -0.09322927755877403 0.00027369275464187516
000030 45 56 db 30 12 8c b2 bf 36 4b 07 25 75 ea 94 3f
       -0.07244981472771268 0.0204256347513578
000040 7a a2 28 d8 14 cf b1 bf 97 f3 c1 85 12 57 a3 3f
       -0.06956606175720906 0.03777368433745847
000050 81 10 f1 2b 34 c9 6b 3f 4c 98 70 f7 8e 2f a2 bf
       0.00339183988356423 -0.03551909227853453
000060 08 23 e8 8c 4e 20 a1 3f da f1 79 92 53 9d a7 3f
       0.03344960660985491 0.04612218058625546
000070 8a 02 53 cb 67 bc 93 bf ac 48 f9 15 f5 91 a8 3f
       -0.019273397240569902 0.047988566334099175
000080 ea cc fd cc 2f 52 92 3f 78 ea 3f 1f f6 60 a0 3f
       0.017891642462427727 0.03198975688424793
000090 e8 20 c2 1e 38 d6 a3 bf 14 00 43 4c 29 a2 a9 3f
       -0.038743737940480305 0.050065317687313066
0000a0 f1 9b 09 16 37 c8 93 bf 00 9f 04 77 89 9c ab bf
       -0.01931844779974407 -0.05392865732056684
0000b0 e5 31 3a 7e cf ad 9a 3f 36 8d 6b 20 53 f8 ab 3f
       0.026053659514717515 0.054628942210707285
0000c0 60 26 5d 4a 70 58 a7 3f 5f 80 e8 5f 60 e8 b0 bf
       0.04559660823595091 -0.06604578343876842
0000d0 ce 02 ed f2 2c 28 b0 bf a1 ba 15 2e 78 f5 9c 3f
       -0.06311303072744609 0.028280141651914396
0000e0 b8 02 e9 76 d2 79 a8 3f 19 b5 21 bb 69 13 5b bf
       0.047804429068951604 -0.0016525776414043124
0000f0 0c fa 0a f5 44 2d b1 bf 30 83 dd 5f df 62 91 3f
       -0.06709700567714821 0.016978731371071365
000100 a0 93 0d 6a b1 81 b7 bf fb ba 6b de ba b9 a4 3f
       -0.09182270850358387 0.04047950711343692
000110 0d 2a 1d 49 22 70 a5 bf a0 21 fd 58 45 24 b4 bf
       -0.041871138978042045 -0.07867844984605776
000120 ea 2c 62 70 48 dd b2 bf 12 1b af 2b dd c3 b3 bf
       -0.07368901008355846 -0.07720739666465828
000130 b2 7e 06 c0 16 ca a7 3f b1 71 74 4c 16 34 91 3f
       0.04646369070110036 0.01680025903361732
000140 97 f1 c5 07 25 17 a7 bf 63 6c 2f 7e ac 63 91 3f
       -0.045098454665068725 0.01698178787397032
000150 4f 74 99 1c 53 5d 85 bf da f5 af 5a f3 3b b5 bf
       -0.010431908903394098 -0.08294602359816086
000160 a2 e1 42 ae 72 47 82 3f 54 1e fa a6 31 03 ad 3f
       0.008925338690787769 0.05666499293607488
000170 37 a5 b5 e0 e2 2e 74 bf 40 06 76 c5 83 7c 90 3f
       -0.004927526704116495 0.01609998600679874
000180 43 49 14 93 9a 71 97 bf 48 0c 97 a1 e1 e6 a3 3f
       -0.022894301630978175 0.03887086007628021
000190 7a 43 c5 c9 1c f2 a4 3f 5b 8f 2a a2 99 00 ae bf
       0.04090967143077413 -0.05859832863396149
0001a0 3a 5e cf e8 45 e2 a7 3f 1b a3 49 83 65 25 9d bf
       0.046648201626961996 -0.02846296895805543
0001b0 06 4a c2 1a 14 90 ae 3f 94 ad 9d d5 62 8f a5 3f
       0.0596929819740986 0.042109573913729964
0001c0 0a 86 ce 2e 9d aa 9c 3f e8 e0 8f db 16 69 a3 3f
       0.027994590741974114 0.037911142637257644
0001d0 f1 10 10 13 e7 ad 99 3f 32 c3 e7 79 b9 8d 90 3f
       0.025077448404787487 0.016165636125097645
0001e0 e2 31 3d 89 38 55 85 3f 7f 7e 62 dc 30 d3 67 3f
       0.010416452110484312 0.002908320838358069
0001f0 02 e7 e9 81 fe be 89 3f 17 39 ca ff 14 f6 87 bf
       0.012571323718691744 -0.011699832969750674
000200 30 a6 95 06 8e 4c af bf c0 6f 99 96 12 87 b3 bf
       -0.06113094168069855 -0.07627979447118971
000210 ab 62 c8 9d 37 14 b0 bf 0e 3d 85 58 a4 96 83 bf
       -0.06280849077337318 -0.009564670516424314
000220 41 c3 7d 78 e3 9c b0 bf 4b 81 c6 66 73 69 72 3f
       -0.06489392940217177 0.004495096957186038
000230 63 20 e2 b4 b7 5d ab 3f b1 ab 89 4a fb 25 88 bf
       0.05344938357399156 -0.011791194164478687
000240 f6 ff b6 29 d3 51 a4 3f b7 c4 e7 b7 d7 36 af bf
       0.039686774103301944 -0.06096529121340082
000250 51 d1 14 87 c6 ae 7a bf 5b df f0 f5 12 84 9c bf
       -0.006514335154225685 -0.027847572575608975
000260 7d aa 5e 13 25 0a b1 bf 0d 95 93 9e 95 b6 a8 bf
       -0.06656104777236212 -0.04826800881145674
000270 dd 2f 17 4a 3f de 90 bf c8 94 97 8d 8f 13 b2 3f
       -0.016472805878762976 0.07061097342337341
000280 80 f7 5f 8f 15 86 a2 bf 5f 08 99 52 be a9 ae 3f
       -0.03617923140698931 0.05988878973268252
000290 48 8b 6a 37 e4 73 b2 bf fc 25 58 a4 ed 7b 9d bf
       -0.07208086350378295 -0.028793061404973827
0002a0 5c 90 e2 00 ec bd 8b 3f e6 9b 41 9a c6 7e 8c 3f
       0.01354584100437977 0.013913680632141334
0002b0 b3 79 f5 ff da 4c 69 3f 9c 65 50 49 37 ca b7 bf
       0.0030884053555119916 -0.0929293207158452
0002c0 0c af b7 f4 4d 70 b0 bf 1b ea 2a d7 b4 04 92 bf
       -0.06421363091038418 -0.01759607852248211
0002d0 ae cb c5 e8 e1 91 80 3f 91 f0 ff 01 91 08 70 bf
       0.008090748706967545 -0.0039144195907249305
0002e0 c4 d6 db 55 f1 5a 7e bf 60 8a 3a 9b ee 57 b6 bf
       -0.0074109484828476825 -0.08727923669588611
0002f0 d9 2e 9f e8 c9 18 ac bf 2f 8f 9a 4c ee 5e a1 3f
       -0.05487662281629264 0.03392738995651567
000300 cf 5e 53 71 70 f1 66 bf 6f e5 11 66 fc 5c 9a 3f
       -0.002800674070936405 0.025745338182308893
000310 d8 c8 29 6c 8f 77 9e bf 3d f2 e2 8c 36 d8 a4 3f
       -0.02975296113658818 0.040712074945507194
000320 89 ec 96 85 95 d1 88 bf 5c d6 c1 17 ef 3d ac bf
       -0.012118499888734273 -0.05516001858715633
000330 b5 6b 6b ea 0c 44 a2 bf 17 7f cc e0 0f 08 a4 bf
       -0.03567543374602825 -0.03912400836111212
000340 09 4f 4e 6f 49 a3 a3 3f 30 dc 00 58 37 f4 a4 3f
       0.03835515483583946 0.040925721638295776
000350 f6 a9 7f 2f 6f c2 a7 bf cc fb 5b 4d 93 84 84 bf
       -0.046405291126422485 -0.010018492506331265
000360 dc 59 a6 0d 71 bc ab 3f fa 55 02 6d 5a 6e 88 bf
       0.054172070423351676 -0.011929232074446173
000370 3b ab a4 a6 2d 97 85 3f 60 6b 3b d8 9b b8 83 bf
       0.010542256019638088 -0.00962945703161261
000380 29 55 27 1b 61 6c b5 bf ee 36 11 86 35 c6 98 bf
       -0.08368498719149343 -0.024193607623877726
000390 05 da d3 67 0e 06 b3 bf 83 22 ea 0a ec fa ad bf
       -0.0743111613736361 -0.0585550082515214
0003a0 a6 e3 c0 2f 94 4b a3 bf 6f b4 87 5a e6 59 8b bf
       -0.03768599589279313 -0.013355064046630198
0003b0 1c f4 65 d9 57 dd b4 bf 66 79 9d 58 33 d2 b4 bf
       -0.08150242860388385 -0.08133240617232715
0003c0 42 d7 2c cb b4 f5 ae bf 59 34 e5 3b 98 24 aa 3f
       -0.060468339730887624 0.05106044512886205
0003d0 10 1f 3e 67 32 04 b2 bf 77 93 88 bc 86 9e ac 3f
       -0.0703765394265441 0.055896959795325545
0003e0 0e b7 19 d0 df 79 ac bf 87 30 f0 f5 02 5e 6a bf
       -0.0556173268822545 -0.0032186563325976056
0003f0 61 4b a1 12 8b 0c ad 3f 8a 2c 64 0f 54 97 a5 bf
       0.056736322426010906 -0.042170168761082996
000400 ef 31 cc 7b 05 93 aa 3f 80 26 9e 8f 61 35 90 3f
       0.05190293441964743 0.015828632727368674
000410 ae 6e 4e b3 4b b7 b9 3f bf 90 75 4a 14 b5 55 3f
       0.10045312049481467 0.0013249109414000119
000420 12 38 5f 13 d2 e6 b0 3f f8 ab d2 8e 84 1f 81 3f
       0.06602204297016126 0.008360896690950512
000430 82 55 d5 b4 fa e8 a6 3f 03 8a 1f 20 e0 fb 91 bf
       0.04474624116361793 -0.01756239124359561
000440 a8 d7 bf d9 69 1b af bf 72 99 1f 14 89 ce a0 3f
       -0.06075602324555912 0.03282574053428079
000450 89 d0 01 53 d1 49 b1 bf a3 4e 7a 34 b6 f8 a2 3f
       -0.06753261829891434 0.03705376997564016
000460 7e 2b 66 54 ed 5c 9f bf 2c 9b 07 0b dc b0 a9 3f
       -0.030627926136314702 0.050177456232452705
000470 c9 2f 99 68 95 b0 98 bf a0 e3 4d ec 41 9f a0 bf
       -0.024111113080195232 -0.03246503839085979
000480 2d d3 87 76 d9 2e 9b 3f f2 b7 ef 96 f5 7f b2 bf
       0.02654590402558481 -0.07226500449152676
000490 f7 5e 54 17 2d 67 71 3f 2f aa b1 33 29 ba aa 3f
       0.004248787057143258 0.0522015452960044
0004a0 2e 56 2d c1 21 4c b2 3f 70 11 23 57 97 49 dc 3f
       0.07147417989957525 0.4419916487643354
0004b0 aa 25 6b ea a2 1c a2 3f 78 6d b0 50 f6 f2 b4 3f
       0.035374728313011986 0.08183230848265122
0004c0 9c 04 9a 80 57 c4 a1 3f 17 8c fd c8 65 ec d0 3f
       0.0347010941013732 0.2644285643384036
0004d0 87 b7 31 45 16 f4 e3 bf 45 c6 4e ec 10 73 99 bf
       -0.6235457755517338 -0.024853004859045198
0004e0 8c 04 44 8b 4c 3d 9a 3f b0 cc b9 3e e6 99 c1 3f
       0.025624462127784173 0.13750913679868892
0004f0 22 9f 6b 12 8d d1 84 3f 15 1b d0 3a 94 5c a4 bf
       0.010165311932226088 -0.0397688218873126
000500 62 41 93 4d c3 8c a6 bf e2 6b 26 4d bd 6e a8 3f
       -0.044042685718184385 0.04771987501882059
000510 d2 c2 c8 6c 27 4c bb 3f ee 73 f9 75 70 12 a3 3f
       0.10663076787819684 0.0372500556957006
000520 3b 26 21 4c b5 37 a5 3f fc 9b 1a 01 33 e6 b8 3f
       0.041440644782209955 0.09726256157829022
000530 5c b7 02 9e 0b 59 9c bf 53 e1 a3 ca 89 1a c2 3f
       -0.027683431166841785 0.1414348830655948
000540 06 01 89 be 92 98 ad bf c6 2e d3 e9 b3 89 b3 3f
       -0.057804666289031956 0.07631992777458682
000550 c9 17 b0 bc 4c f4 af bf 89 5a 74 45 69 10 8f bf
       -0.06241073420828475 -0.015168020660479857
000560 3b ff 46 f0 8a 05 74 bf 78 62 e2 f3 27 d1 b1 3f
       -0.004888098458138586 0.06959771827895078
000570 b0 a6 01 34 77 2a af bf 8f 80 93 59 47 67 de bf
       -0.060870862101024215 -0.47505363223718516
000580 f7 02 a4 6a f1 5d 9e bf 4c 0b 7f ed 52 96 a3 bf
       -0.029655239232854815 -0.038256255618327545
000590 b6 04 e0 ef 62 87 b9 3f ab b8 a8 e3 f4 59 d3 bf
       0.09972208362889287 -0.30236551506357995
0005a0 c6 f1 0a 4f ff ce 67 3f 3a 69 ee da f1 50 d6 3f
       0.0029063211917146085 0.34869047527321906
0005b0 ee 24 14 aa 49 b2 93 3f 70 27 5a e0 c4 cd 71 bf
       0.01923480129793103 -0.0043466272815154555
0005c0 1f 43 ff cf fd 06 bf 3f 5e a9 c5 30 9c 79 98 bf
       0.12120043113760602 -0.02390140578919763
0005d0 b8 39 da 9b 51 41 79 bf dc fe dc ee 27 3e aa bf
       -0.0061658084720321235 -0.05125546255885435
0005e0 9c 50 06 59 7e 1f af 3f 9f d0 a4 70 5a 67 3d 3f
       0.06078715168692492 0.0004486652184312409
0005f0 7f a4 20 ce ce e8 8c bf 21 0f 76 16 a7 f1 b5 3f
       -0.01411592070151557 0.08571857736938827
000600 29 f2 09 fb 68 27 d2 bf 4a 33 07 cd ec 17 97 bf
       -0.2836554004241259 -0.02255220414535878
000610 66 c4 77 63 63 97 c2 bf df 6b 91 2e dd ce a9 3f
       -0.1452450023348632 0.05040637200791997
000620 a3 c3 4c 28 64 7c 9c 3f 4b 50 8f a9 0d f1 9e 3f
       0.02781826492281748 0.03021642062579159
000630 57 4f 87 5f f2 91 a4 3f b5 66 ee 5b 4b 5a cc 3f
       0.040175985490036474 0.2215055655367927
000640 21 ca 0b a5 59 94 d1 3f 23 a7 58 f0 87 31 a0 bf
       0.27467957608965504 -0.03162789162554549
000650 59 74 5b 63 c5 0d ab bf e4 78 64 49 d1 5c 90 3f
       -0.05283943975312217 0.015979070763131
000660 23 b8 79 23 1a 41 d3 bf 37 96 1e c5 d1 0e a3 bf
       -0.30084851707840893 -0.037222438156544184
000670 c5 0d 1c 57 e7 a3 83 bf 0c d4 e1 36 68 ed e2 3f
       -0.009589965196488923 0.5914803573529084
000680 68 66 81 ee 5e 97 b2 bf f6 05 9b c9 a4 3c d3 bf
       -0.07262223551642821 -0.3005763977817816
000690 5e 8d 3e 84 1a d7 c7 bf 55 17 ee e9 c4 75 89 3f
       -0.18625194031947506 0.012431658162096385
0006a0 81 69 1b 9f d7 39 a6 bf 99 87 a2 92 96 40 b7 3f
       -0.043410051510096366 0.09082928733781016
0006b0 17 26 86 ec bb c3 9d 3f 3d 78 fa 67 e8 50 aa bf
       0.029066978751450003 -0.05139852780597252
0006c0 d6 aa f9 c2 42 77 aa bf 2f e4 b2 57 ba a3 82 3f
       -0.05169113760060433 0.009101348687510306
0006d0 de c6 19 f6 f7 e7 96 bf e7 cf 92 63 1d 36 a3 3f
       -0.02236926498011981 0.037522238163916026
0006e0 ab 05 71 32 98 3e b3 3f 8c c9 f9 50 56 cd c4 bf
       0.07517386657220608 -0.1625163932217898
0006f0 cb bf ee ab 1a 06 c4 bf 7c 0b d6 6b 5f 84 a1 3f
       -0.1564362849726407 0.0342130488525276
000700 55 43 15 e6 1f fd 85 3f 70 ff c7 b4 59 3a b7 3f
       0.010736703118398397 0.09073410667042281
000710 45 1d 15 05 6c 93 b3 3f f6 ca 27 ef f4 3f a5 3f
       0.07646823047717984 0.04150357646348894
000720 7d 56 eb 86 c3 04 98 3f bd 24 e5 a0 02 66 a2 3f
       0.023455672368831493 0.03593452657748617
000730 48 a3 05 64 79 c0 74 3f 7c 42 2b 43 31 0e ae 3f
       0.0050663701843881095 0.058702029656733296
000740 1e 98 af 8e 2b 4f 94 bf 20 7a 3f 82 da a3 a0 3f
       -0.01983326013932906 0.032500103377732126
000750 56 d9 4e 4f 2e c3 ba bf da cc ab b5 18 03 94 bf
       -0.10454072414618074 -0.019543062294314996
000760 61 da bf a3 59 24 97 3f 10 5b 11 9f 70 0a 88 bf
       0.022599602336379813 -0.01173866258083714
000770 74 43 ac e4 bd 23 c1 3f 67 fd d3 94 5b 3e b1 3f
       0.13390325227421906 0.06735775359628847
000780 76 11 76 d0 b4 b0 a8 3f 24 16 0d 36 7d bd 7f bf
       0.04822316212360793 -0.007749070268635392
000790 fe 43 6c c2 bc 5c c2 3f 7b 09 a6 b8 8a 14 ae 3f
       0.14345511906915925 0.05875047210703862
0007a0 05 aa f2 1b 03 23 bd 3f 7e d0 8f b5 3d 26 d6 bf
       0.11381549293825095 -0.346084048563405
0007b0 5a f1 80 36 a9 62 a7 bf 84 e3 b3 a4 c2 b3 47 3f
       -0.04567459860160979 0.000723333397586776
0007c0 1b 17 b8 4d c1 8f b2 bf 56 41 c8 54 dd d5 a9 3f
       -0.07250602862776782 0.050459782218356494
0007d0 91 cb 81 d6 12 85 79 3f c1 0b 9b 32 c4 87 9b 3f
       0.006230424485795264 0.026885095204089774
0007e0 6c f1 f7 36 5a 82 b9 bf 77 36 e9 54 17 9c d5 bf
       -0.09964526979451244 -0.33765204708183866
0007f0 22 fd 6f 9f 96 36 af bf d7 b6 76 24 8c 29 b0 3f
       -0.060963351214008435 0.06313396349170418

bias f8 [128]
000000 37 e7 5f 4c e2 af 89 3f 29 ce 15 53 bc bf a6 bf
       0.012542503314751137 -0.04443157686446526
000010 e9 56 0b 65 ab 7a 8d 3f b4 20 bd d4 37 76 8c bf
       0.014394129773261226 -0.013897358112118098
000020 51 1e 5f 32 dd 3f 98 3f 27 50 e7 9f 86 03 60 3f
       0.023681122016368687 0.0019548062693761806
000030 b7 c5 d8 aa 13 23 ac bf a3 eb 2f c1 77 76 74 3f
       -0.05495511494190047 0.004995792190125056
000040 d3 be 4f 73 99 81 b1 bf fe 18 85 a0 6b 7d a6 3f
       -0.06838378014776518 0.04392563185187902
000050 ae 18 d8 5c c4 de 8b 3f 4f 20 d9 01 69 d4 b8 bf
       0.013608488162401091 -0.0969911221992572
000060 f8 83 bd 5d ee 0c 8a 3f 53 54 55 c6 fb 8c 90 bf
       0.012719976649977469 -0.016162809353165674
000070 f1 ae 13 14 15 61 8c bf 79 15 2a 58 fd 6b 90 bf
       -0.013857044863889697 -0.016036947733046845
000080 a2 d6 6a 63 82 b4 b6 3f 8b 64 ce 35 54 27 b1 3f
       0.08869185378247349 0.06700636209133586
000090 a5 8c 9f 27 6b a2 a3 bf 80 7f 23 74 1a 3c 93 bf
       -0.0383485303753102 -0.018783963526288527
0000a0 46 fe 17 47 05 ef ac 3f 88 77 7a ed cf 75 a8 3f
       0.05651108258097941 0.04777383588701328
0000b0 53 a6 f7 d2 1b 36 89 3f d3 e1 a5 af 9f 01 98 3f
       0.0123102353818069 0.023443694205953335
0000c0 bf 0e 6c 79 2c bf 9b bf 61 b8 8a 08 43 30 a9 3f
       -0.02709645739652333 0.04919633368750521
0000d0 f0 ca cf ed f4 f8 84 3f b9 5a 27 75 ba b5 b5 bf
       0.010240472323834265 -0.08480420456121864
0000e0 9a b5 88 63 cf 67 a5 bf 01 41 42 48 18 db 91 3f
       -0.04180763330473809 0.01743734303505651
0000f0 f0 ef 4c cd 42 40 79 3f 5c 11 18 a9 be 8e b2 bf
       0.006164799637925697 -0.07249061229965065
000100 9f 73 0d 9a 1d 19 96 bf 52 5c c6 61 6c 4d 96 bf
       -0.021580183532353577 -0.021779721706107154
000110 fb 60 9c d2 f8 70 9b bf 6d bb a9 0d 9b 10 ba bf
       -0.026798141340891295 -0.10181588252610903
000120 24 67 4a 99 1a 7d 83 3f 48 43 e7 6b ac cb a0 bf
       0.009515960505541772 -0.03280390565090002
000130 78 8c 94 32 fd 65 71 bf f6 45 a1 34 d8 30 aa bf
       -0.00424765496544232 -0.051153904366071076
000140 ca 38 b2 92 de f8 bb 3f 69 05 b8 e2 e6 7e 1e bf
       0.10926619607400592 -0.00011633190359107915
000150 78 d2 8e da e4 54 71 bf 29 90 16 74 7a c2 7c 3f
       -0.004231351814202193 0.0070214064921039565
000160 f6 6c e7 68 c0 68 5b 3f 1e 3c 44 ca be f1 41 3f
       0.0016729239465494406 0.0005476171104720239
000170 ff 8b cc 77 62 04 a9 bf 12 09 7a 09 53 9e 8f bf
       -0.048861577152159434 -0.015438698507982216
000180 6c 4e 51 cb 28 da b4 bf 29 49 4e e2 f0 ec a9 3f
       -0.08145384753998436 0.05063584101221103
000190 ef 2f bb c9 f1 b7 88 bf d3 a6 9a 85 db 70 46 3f
       -0.012069596260879193 0.0006848403820260647
0001a0 da 3d 2e 92 91 64 b3 bf 7a e5 7b 21 0f 39 98 bf
       -0.0757533056150729 -0.02365516321058212
0001b0 ff a2 20 7a 7a ab 93 bf cc 1a c6 16 37 f2 81 3f
       -0.019208825782842883 0.00876277006387962
0001c0 a1 76 52 c0 52 90 b0 bf d6 3f 07 56 ae bc a2 bf
       -0.06470219798435518 -0.03659577179098476
0001d0 13 63 73 6b aa ef a5 bf 90 70 19 45 d5 15 9f 3f
       -0.04284412919668603 0.030356724112025335
0001e0 f7 8a cd 83 e4 b7 a7 bf 27 5c 26 79 30 75 b9 bf
       -0.04632486447260036 -0.09944441755065779
0001f0 98 fb 43 3c c6 35 a7 3f 6b 57 6c 6d dc f1 82 bf
       0.045332140785823316 -0.009250375832873655
000200 f8 a1 be 1d 8f d1 65 bf a2 40 a2 22 8c 8c 97 bf
       -0.002663402103241671 -0.02299708329570705
000210 9f 42 39 5b 3b 8b 8f 3f 1e 7d 88 9c 8a 48 ab bf
       0.015402282449174463 -0.0532878223495976
000220 b8 bf 0a 55 90 80 8c bf 70 23 79 a6 99 b0 ad bf
       -0.013917090983653554 -0.05798797757285612
000230 a5 97 11 8f 32 80 b0 bf 19 b1 0f 9a 3b 08 b1 3f
       -0.06445613854302097 0.06653187285673247
000240 f4 2b a7 fd 53 ce a9 bf 0b c1 06 b7 fc 67 a3 bf
       -0.050402283395292985 -0.03790273412903574
000250 43 2e d1 96 6b 5b 7d bf b6 49 0e a4 e4 fe 91 3f
       -0.007167263288532735 0.017573902619526037
000260 f6 f3 6b 00 c3 66 95 bf 9c d0 10 a9 7b 05 91 3f
       -0.020899817372072214 0.016622478670072924
000270 af be 3e 0b 1f 62 b6 3f ac 51 3e e2 40 74 a3 3f
       0.08743471169031623 0.03799631845245996
000280 44 e3 50 82 77 be a4 bf 78 7c db 4a 15 db a0 bf
       -0.040515646608076966 -0.03292147196565848
000290 76 7e ad 19 4f 7b ab 3f 9b 4c 2e de 40 4f b0 bf
       0.053675147900091355 -0.06370931076371493
0002a0 83 20 92 21 32 52 b3 3f b2 3a 82 7e f2 1a aa 3f
       0.07547295875167674 0.05098684114738229
0002b0 c6 1c 05 9a e6 b7 81 3f 3f c8 16 83 a4 e0 87 bf
       0.008651544165913082 -0.011658940554159723
0002c0 61 89 35 0a 15 d1 9c 3f 42 5d ae b9 5b ca a3 3f
       0.028141335247150127 0.038653246322776016
0002d0 d1 48 2b 6e 8f 3b af 3f fb 6e 1d 23 87 97 b2 bf
       0.061001283834814075 -0.07262463195132433
0002e0 98 31 84 f8 e4 d8 b9 3f b1 60 91 ba c2 d1 be 3f
       0.10096579615873791 0.1203881936538689
0002f0 f4 6f 3d 78 5c 25 97 bf a8 51 b8 6b f2 a7 b0 3f
       -0.022603459204546497 0.06506266717798914
000300 56 16 c4 c8 23 55 a9 3f 2f 19 14 f1 2b 5a a7 3f
       0.04947768998867434 0.04560983007290741
000310 99 97 6b d7 70 a1 85 3f ef 77 12 b3 bd eb b3 bf
       0.01056183011446503 -0.07781587240103226
000320 c9 17 41 93 38 86 b1 3f fc a4 d3 99 54 1a a2 bf
       0.0684542998797887 -0.03535713556068207
000330 2e f7 b7 ca 12 ff af 3f 0d 1d 63 c4 e4 e0 92 3f
       0.06249293064682458 0.018436026083489532
000340 13 e8 73 69 c4 e7 7b bf f1 c1 44 58 9b ba 95 3f
       -0.006812827333527965 0.02121966100929912
000350 ac af d4 2a 9f e3 a1 3f 88 e0 8f 0a f1 a6 7e 3f
       0.034939741114015405 0.007483426635182984
000360 de a3 0d 4d 37 0d a3 bf 14 75 f1 1c 6e 62 ba bf
       -0.037210205226820156 -0.10306442457791248
000370 ad 6b a6 cd f7 b1 b1 bf 87 9f 1d 14 ae fd af bf
       -0.06912182589296263 -0.062482299762279196
000380 ae 1e 37 29 5f 72 b7 bf 3e 6e 47 21 d9 84 a1 bf
       -0.09158892399056626 -0.03421667605627164
000390 eb 27 5f 94 2d aa b3 bf 26 5c 8c 89 e6 78 af 3f
       -0.07681546089511897 0.06146927289062658
0003a0 74 4d eb 68 1a c7 8b 3f ef f1 23 cf c5 f0 9c 3f
       0.013563352896574378 0.028262224929663956
0003b0 ed 1d 5d 5f 87 08 b2 bf a8 3f 66 3b 25 98 aa bf
       -0.07044263914314515 -0.05194202756967964
0003c0 e9 ad cb 35 00 58 a0 3f dc ec a3 02 2a 53 b3 bf
       0.031921392981384696 -0.07548773350201848
0003d0 d0 32 02 de 09 56 a1 bf a1 a5 ea 70 8e bc 6e bf
       -0.03385954699579019 -0.0037520200779296996
0003e0 7e 85 32 06 d2 ce 82 bf 1f 31 64 f7 ac 94 65 bf
       -0.009183541120651336 -0.0026343706368888854
0003f0 fd 78 76 fe 0d e2 99 3f 09 07 1d 97 97 fd b3 bf
       0.025276392608810195 -0.07808825911800112
