fNN_gpu_64.pt (torch, 294140 bytes, 14 tensors)

weight f8 [128, 4]
0	0x3fdac50bbf576df1	0.4182767265862984
1	0xbfafca3e88a20e6e	-0.06208987634547901
2	0xbfd87a9988bede52	-0.382482894459348
3	0xbf91fedc95cf11f9	-0.017573782580955186
4	0x3faabca2c6740d5b	0.052220427251109945
5	0x3fd661f79159eecb	0.34972943491423497
6	0x3fd7baa204263475	0.3707661667365934
7	0x3fd1ab3f8c14b207	0.27607716254968334
8	0xbf6fd665d1ca8e73	-0.003886412492947683
9	0x3f8b570c6b1de88c	0.0133496256055319
10	0x3fb2a7b39a95f70d	0.07287142299716383
11	0x3fbe570750af6987	0.1185154506669389
12	0x3fd01109bdf93434	0.2510399203500271
13	0x3fc5fdf4050515db	0.17181253666983207
14	0xbfd728f6abc55ae0	-0.3618752171945925
15	0x3fde64b960e2ac96	0.47489771329373676
16	0x3fdc1c80b20fde20	0.43923966778626955
17	0xbfdaa20ac22464d3	-0.4161402603072705
18	0x3fc4bde00264a2b2	0.1620445262608619
19	0xbfd5260af468c395	-0.3304469477471284
20	0x3fc4775b166898be	0.15989245027703264
21	0xbfcf997328eeebd3	-0.24687041758246994
22	0xbfd2964a50be8c59	-0.2904229916113699
23	0xbfd14a7c58db2134	-0.27017124821988436
24	0xbfdac7c9fec62dde	-0.418444155505055
25	0xbfd0d2122672803f	-0.26282171015373373
26	0x3fd852f9d74463f2	0.3800644495218527
27	0xbfc9425f2941f7b3	-0.19733800425086442
28	0xbf69acc9a7ce0765	-0.0031341494163265476
29	0x3fe6fc86ee60e166	0.7183260589436429
30	0xbfe62707de7642ae	-0.6922644944152887
31	0xbfade606e74ee753	-0.058395591483942376
32	0xbfc5b741cfd4712e	-0.16965506217901222
33	0xbfc279efaca2f1a9	-0.14434619836346244
34	0xbfdea1e1833c79b2	-0.47863042655981325
35	0xbfe8cc79726f4cbf	-0.7749602541975021
36	0xbf49f5ed54bcc81c	-0.0007922562449265177
37	0xbfe85903cd389d24	-0.76086607057815
38	0x3f80cc1c29e26dc7	0.008201808956349489
39	0x3fe83073b06da24f	0.7559145398964321
40	0xbfbb0187dcd67824	-0.10549210683390747
41	0x3fe4ed9315aa733c	0.654000799480492
42	0xbfe49db6768cc697	-0.6442520442416989
43	0xbfbceb9adbc6e6c8	-0.11297004571579372
44	0x3fb3b5ed9f35ef33	0.07699475419024963
45	0xbfd45017feef5c5e	-0.31738853355404284
46	0xbff2e91cfd8960f6	-1.1819124130034289
47	0xbfd473241675f36e	-0.31952764695579716
48	0x3fc235cc462f56ba	0.1422667830180922
49	0xbfa74181290cc37e	-0.04542163492295169
50	0x3fb7659dc18e1907	0.09139429069009362
51	0x3fc856db3d405c3a	0.19015064707557078
52	0x3f5998956fb80904	0.0015622577037680005
53	0xbfe0dc55f898973f	-0.5268964629546885
54	0xbf757d54c9847dba	-0.005246478271402061
55	0x3fe421a12d9d58d4	0.6291051760588524
56	0xbfa18381c45d8a4b	-0.034206443043122
57	0xbfe745b9c69f0a69	-0.7272614363976803
58	0xbfd2d5fc0b6af237	-0.29431058039679975
59	0x3fdc97e97405af05	0.4467719681767764
60	0x3fd82e7fe64c24ed	0.3778381108282492
61	0x3fb0e6e325bb71cd	0.06602306052395264
62	0xbf9dcb87af105769	-0.02909671789173932
63	0xbfd0a7f5649cdebf	-0.26025137734857745
64	0x3fd8c54b0debbdb7	0.3870418201394971
65	0xbfd4d8d426cf564f	-0.3257341746333155
66	0x3fd69365a5cb941c	0.35274640265407853
67	0x3fcbb72315ea2e7d	0.21652639932687015
68	0x3fd7634b7ba3f2be	0.3654354770112994
69	0x3fdfed7df59ea6c8	0.49887036310483923
70	0xbfc27a9c24d05a70	-0.14436675832321866
71	0x3fc7b36196c6311e	0.18516177999516342
72	0xbfd06ef1444985b8	-0.25677138966247126
73	0xbfc535120a6ea0f3	-0.16568208226568223
74	0x3fc7915f1aaecbdf	0.18412388613577854
75	0x3fa54851c54ea751	0.04156737836394931
76	0x3fc2ba99a2fdd6f5	0.1463195844514115
77	0x3fc17819b9889949	0.13647767600304864
78	0x3fd0f807c0162819	0.2651385665745934
79	0x3fcb19114ec4d40f	0.21170250269065646
80	0x3fd5a2fc4ab06da8	0.3380728463541467
81	0x3fd59c2ae61be00f	0.3376567122609239
82	0x3fd4be5dfc6b1f56	0.3241190876983543
83	0x3fce37ac6de6e80e	0.23607402197177446
84	0xbfc7a6516e536707	-0.1847631252956534
85	0xbfd1f5a1bd86742a	-0.2806171751815919
86	0x3f86297ee6b4c618	0.010821334281533132
87	0x3fc4f0904674b7d8	0.16359141769629448
88	0x3fb9aaee5af47349	0.10026445122316575
89	0xbfef9b50209945fb	-0.9877091061300115
90	0x3fd5c4e007de3e55	0.34014130371449386
91	0x3fe5cfa5b470d014	0.6815975689155516
92	0x3fdc4e2a5f66c85a	0.44227084461738786
93	0xbfb4b34484066b05	-0.08086040709751437
94	0x3fcaad2d33877d6a	0.20840992942883513
95	0xbfcbc400e3ee450e	-0.21691905145102236
96	0x3fccd78f95224f26	0.2253283956712206
97	0x3fcb58fac858d06b	0.21365294249119712
98	0x3fd91adc3c35e4f0	0.3922644222253231
99	0xbfc7683378b20f3f	-0.18286746400201
100	0x3fc614753e9d57db	0.17249932820658284
101	0xbfcbfcb35fd0e77e	-0.21864931276814653
102	0x3fe3cb5a7a0a1e97	0.6185734160980755
103	0xbfe5960e452c0254	-0.6745673514379384
104	0xbfd7b29df9deeb10	-0.37027692223971176
105	0x3fc7f828e795a5af	0.18726073558654607
106	0x3fccd860f31651cc	0.22535335416308866
107	0x3fc71b0389d0e5fe	0.180511896412824
108	0xbfd8c060245a94a1	-0.3867416720407367
109	0xbfc9947a489f7685	-0.19984367891349933
110	0xbfcee51844c2816c	-0.2413664184323453
111	0x3fb7f65d98a176fa	0.09360299087844828
112	0x3fd4b19c6ef5902a	0.32334051929342655
113	0x3f70433eb54b6cc2	0.003970379785381785
114	0x3fbd9fbb1d059bce	0.11571855028670017
115	0xbfd47a62df59f04f	-0.3199698620953812
116	0xbfdae3b0254525ac	-0.420146976849163
117	0xbfd166f680ec6c37	-0.27190935697734936
118	0xbfd1cf331bc4fb44	-0.27827146255360824
119	0x3fce6f6a5801aa62	0.2377751283377903
120	0xbf4f5654c2efb1aa	-0.0009563363909115736
121	0x3fee8f0aa0869684	0.9549611220615621
122	0x3f8b509e64346f7c	0.013337361748703584
123	0xbfefe5c49a83461d	-0.996797849448004
124	0x3fcb11395bd8dc6b	0.21146313652727441
125	0xbfd563d6b1aad417	-0.3342186675102438
126	0x3fb9fcdbcd5643e7	0.10151456606969554
127	0x3fc702b5e43ae87d	0.1797702183155855
128	0x3fd4f75ccbd9fe35	0.3275978079545639
129	0xbfd34fdda98a144c	-0.30174962574557607
130	0x3fb180bb439c7eef	0.06837053681055826
131	0x3fd57182b45f68a9	0.33505313505669193
132	0x3fb300d02d7f3388	0.07423115835918115
133	0x3facc98dfb0bd6c3	0.05622523965386741
134	0x3fcd07a82352178b	0.226796166654989
135	0x3fb6cb005143b687	0.08903505310055425
136	0xbfbaeaff535b81ea	-0.10514827523321171
137	0xbfcb5434b418b93a	-0.21350725930956022
138	0x3f9ed4e5c5ba4e4c	0.030109014695496136
139	0xbfce7ce90b468e27	-0.2381869607025788
140	0xbfa772f684889d3d	-0.045798972776817305
141	0x3fce6cf3d1269f10	0.2376999636883217
142	0x3fdb71fbffd2c88e	0.4288320539736866
143	0xbfbbccadb19cee22	-0.10859189592604726
144	0x3fda6a08d6fa7fbb	0.41272183412547364
145	0x3fd9e9208983adc1	0.4048539488710184
146	0xbf8f41514cc8c01f	-0.015261302142874964
147	0x3fdbab12290d7f04	0.4323163414864981
148	0xbfc4cf7d515416e9	-0.16258207770459102
149	0xbfb391f822666879	-0.0764460643753483
150	0x3fb543e9119d3ac5	0.08306748085054057
151	0xbfd29722006496f0	-0.2904744151913823
152	0xbfc6bf5371fb1303	-0.1777138048693346
153	0xbfb21f9abc14c066	-0.07079474536726735
154	0xbfcdb7e09c4c8189	-0.2321739924600588
155	0x3fd9a6dcd5ac56ad	0.40080948702357483
156	0x3fa93fb4a775c13e	0.04931416076840599
157	0xbfc0676526d60e3b	-0.1281553687696134
158	0x3fe0d1b56f7f9f60	0.5255992105203227
159	0xbfd7cd84accfbc62	-0.37191883922691293
160	0xbfd59a3d067cd35f	-0.3375389636378738
161	0xbfbd570419e2ca81	-0.11460900909404793
162	0x3f96b927c7e32f69	0.02219068677440764
163	0x3fc20d05429de878	0.14102235558295084
164	0xbfcddc3d74b4092d	-0.23328369329835522
165	0xbfc121508af24fe3	-0.13382918152330978
166	0x3fbfdfad65f7a59b	0.12450679530561219
167	0xbfbf3cb14725494d	-0.12201984393076266
168	0xbfd0ff2f8618b65b	-0.2655752954040957
169	0xbfdb633aab581cdd	-0.42793146832305046
170	0xbfc417c1ac777c56	-0.15697499200084292
171	0xbfc334540dae5e91	-0.1500344340135951
172	0x3fd194e9b01d31e5	0.2747139186729142
173	0x3fd34ab61490a775	0.30143501289659663
174	0xbfd1f0eaafb3214d	-0.28032939108063176
175	0x3fac293b09aee221	0.055002064640067745
176	0xbfc579dee8b97dca	-0.16778169978623075
177	0x3fdf70c3f3976e38	0.49125765598521154
178	0xbfc47012819013a4	-0.159670174849592
179	0xbfb18922554a4e64	-0.06849875051767068
180	0xbfc9a5175a2384c6	-0.20035068417840857
181	0x3fdd096a6af0f679	0.4536996883724452
182	0x3fcb192114f3322d	0.21170438311527687
183	0xbfc9005ec1796165	-0.19532379576663597
184	0xbfd911ae17d130eb	-0.3917041046704656
185	0xbfd34f958b272783	-0.3017324313083167
186	0x3fd18f72c98deeec	0.27438039477395537
187	0x3fb754c2476dbf37	0.09113706821312638
188	0x3fb1812fb84fb631	0.06837747812070273
189	0xbfc7edd410c39c2a	-0.1869454461914029
190	0x3fd45d640854d850	0.31820011914840496
191	0xbfeefa6219f54001	-0.9680643565170614
192	0x3f9bffcd1df8fe95	0.027342991785416066
193	0x3fb213ebaf3f1e72	0.07061646488647869
194	0xbfd4b4192d8106e1	-0.3234923309683904
195	0x3fdac2d154e20984	0.41814072884894693
196	0x3fc03fe1232d2af0	0.1269494458923286
197	0xbfbcd0480a53b2af	-0.11255312206385314
198	0xbfc1960c7b528ef2	-0.13739162465673577
199	0xbfd9913b6bbd9697	-0.3994892646936505
200	0x3fdb1f47b2281b0c	0.423784183484188
201	0x3fd1862248b42a74	0.2738118848798543
202	0x3fd1960feefc03d6	0.27478407228778445
203	0x3fa07bdb871a3b9a	0.03219495796394441
204	0x3f53521800270800	0.0011792406445327863
205	0xbfd3a0aeb508bb9e	-0.3066822784339197
206	0xbfd918b275a43369	-0.3921323918191804
207	0xbfd1851fabef3fe9	-0.27375022688374756
208	0xbfbdf3d8218423b6	-0.1170020181490504
209	0x3fc884904c188617	0.19154552188506166
210	0x3f0e722c911cd9d2	5.807112223836824e-05
211	0x3fd5cf4a85f0270f	0.3407770450581759
212	0xbfa377b828fd0eb3	-0.03802276134822815
213	0xbfd8806d51bc0544	-0.38283856374626546
214	0xbfd2223308e8c916	-0.28333736295748346
215	0xbfd3002eea0dd61f	-0.2968861852344577
216	0xbfc624ae7ba28918	-0.17299443280087057
217	0xbfcbd0bc02c22709	-0.21730756888091943
218	0x3fd36a35575c3247	0.3033574441076649
219	0xbfc90fc428c844af	-0.19579364768336435
220	0x3fdaef6333b4390e	0.42086105393617934
221	0x3fcd380884cba4e3	0.22827249988703277
222	0xbfade09e60c2d7c1	-0.05835432940641239
223	0x3f835ba14f8dd4b7	0.009452114334388957
224	0x3fd618db7f299655	0.3452671758480837
225	0xbfd89011d0aeffeb	-0.38379330996758537
226	0xbfdb44c31f8f9916	-0.42607191164133107
227	0xbf80ef404300eaa6	-0.008268835110461236
228	0x3fd195693d781c20	0.27474432947968985
229	0x3fb65be6d5f1d27e	0.08733980868584898
230	0x3fca5b7648609f51	0.20591620000890967
231	0xbfc46926f7a4d68b	-0.15945899097430458
232	0x3fc010a83c33468b	0.12550833644359147
233	0x3fc742e34237794a	0.18172875149952922
234	0xbfd8617f53298109	-0.3809507667665604
235	0xbf90a61b4ebe1c21	-0.016258646660869517
236	0x3f7a4a7fd94fabe6	0.006418704423576371
237	0x3fe88275a74a43f7	0.7659252421746022
238	0xbfe023ed4a2efa90	-0.5043856095215506
239	0xbfd16a745fe1df60	-0.27212247241503995
240	0x3fd6e6ced2d353fd	0.35783739651134266
241	0x3fd817cd7f6e5019	0.3764528030817487
242	0xbf7aeb4f3e0e79b4	-0.006572064915330623
243	0x3fb4799df9298430	0.07998072941838141
244	0xbfd07795e5c4dbfc	-0.25729892195107573
245	0x3fe09936a3fbdb0b	0.5187028124626932
246	0xbfda0854d801adae	-0.40675850958242676
247	0xbfb30c35e6aa2de0	-0.07440506822074822
248	0xbfb8ad134bbb73d1	-0.09639092062884848
249	0xbfe257d25bff078a	-0.5732204243470147
250	0xbfdb903e18c7f259	-0.43067886753104784
251	0xbfdf73533aa3773c	-0.4914138863222097
252	0xbfb364bcd9b05c1c	-0.07575588526411575
253	0xbfd86ef871f1bbbb	-0.3817731011139888
254	0x3fd34a55e2de51af	0.3014120784294176
255	0x3fcc32015486573d	0.22027603747545213

bias f8 [128]
0	0x3fd4518f8a3d2e8d	0.31747807025815505
1	0xbfd243e3082fa65e	-0.2853934841101359
2	0xbfa23520b6d61aed	-0.03556158286942499
3	0xbfc73a8262574e2d	-0.1814730625325053
4	0x3fb55885a6b4c17c	0.08338198966953841
5	0x3fd67c6c4ff3d818	0.3513441830431261
6	0xbfd705b4d1eecd61	-0.35972328664066394
7	0xbf68488baa1f3727	-0.0029642799208663586
8	0x3fd46b8bd2c54237	0.3190640981966086
9	0xbfa786df0657b2a4	-0.045950860523452236
10	0x3fb9341bb7029d26	0.09845135896704402
11	0x3fc4e604869d2190	0.16326958249034051
12	0x3fc07ba4a377841e	0.12877328855304965
13	0xbfba488f49cb7d16	-0.10266967345841169
14	0xbfaab67154c21798	-0.05217317733426724
15	0xbfaa820a64e77291	-0.05177338105906871
16	0x3fb189030f98897c	0.06849688654668812
17	0xbfd2914bf8f37d05	-0.2901182109034866
18	0x3fc87f57f2f293f9	0.1913862167613443
19	0x3fbcc1592512ed35	0.11232525973439496
20	0x3fd1ab8baee5cdcb	0.27609531478739474
21	0xbfd4f4960561c98e	-0.3274283459242263
22	0xbfbdc0300360e17f	-0.11621379930955376
23	0xbf9a14b602ca905c	-0.0254696311191228
24	0xbfc9aae0b98bc8dc	-0.20052727756371425
25	0xbfc7607a2e62e150	-0.18263175263360631
26	0x3fcbf6f68143a412	0.21847420989732363
27	0x3fd39b8cd6736e69	0.30636902754279177
28	0x3fcab99e6c78997e	0.2087896375316624
29	0xbfda5b06c8ca827a	-0.41180581673146543
30	0xbf45e2fc705e2f3e	-0.0006679279911039127
31	0xbfade32ba917b2ce	-0.05837379874342262
32	0x3fa77290d2ed7026	0.04579594206617825
33	0xbfb56895a694de44	-0.08362708393985324
34	0xbfcdb5b04596b322	-0.232107194880336
35	0xbfa18b9409365596	-0.03426802265600341
36	0xbfd47c4194479114	-0.3200839946787408
37	0x3fda923c56eb13e9	0.41517551887619547
38	0x3fd6225a18eca195	0.34584667619722015
39	0xbfb08243d96e21ff	-0.06448768671373982
40	0x3fdbb4d542fdd965	0.43291217367313656
41	0xbfd18d71a5bafa8c	-0.27425805267913783
42	0xbfd89d57dc0f5390	-0.38460346689435543
43	0xbfc237d7b8dfe329	-0.142329182883054
44	0x3fc5b207acda367f	0.16949554386194518
45	0x3fcf149298d4060e	0.24281532728495886
46	0x3fc09746565ba80e	0.1296165391607364
47	0xbfb7915e3fdda4c2	-0.0920618921205856
48	0xbfda3091bee8489a	-0.4092144359903017
49	0x3fced3778fe909fa	0.24082846190329105
50	0xbfd5c968be298080	-0.34041803904074897
51	0xbfb3d4cd6dad84aa	-0.07746585776978301
52	0x3fd5ac6c97c90421	0.33864893744254415
53	0xbfcaeb366fe28977	-0.21030312026148199
54	0x3fd6aee2a6b7d5a1	0.3544241550547103
55	0x3f9d4d90bd9bc290	0.028616200993328678
56	0x3fd42593f404c482	0.3147935755724306
57	0x3fcd60ea251ab0f0	0.22952009975177345
58	0xbfd967c565b520f5	-0.39695868427635556
59	0xbfa8ee3f6f5ba823	-0.04869268640852933
60	0xbfc39f772d2b0b27	-0.15330400186038526
61	0x3fce6823c52a1ec3	0.237553092262024
62	0x3fd4060ee83dc0d0	0.31286976508910147
63	0x3fbe51b01c14324e	0.1184339588691696
64	0x3f6f631dafb6d1cc	0.003831441861360063
65	0x3f8cc3db77eb35ee	0.014045443150645345
66	0x3f9273751fa0c215	0.01801856046239621
67	0x3fb51c3d093ad400	0.08246213412606096
68	0x3fd67f304fd19f80	0.35151298327263447
69	0xbf786927890d046d	-0.00595965808389663
70	0x3fac4f95a4734cef	0.0552946818585499
71	0xbf8dd379efddf0fb	-0.014563515312822952
72	0x3fa5873f63014ff3	0.0420474823337428
73	0xbfd73f0dd4f39bc4	-0.36322351261190655
74	0x3fd86213add62d7a	0.38098613716348206
75	0x3faa4c88f8145c7a	0.05136516598047876
76	0xbfae2f0bbbb27d89	-0.05895268121934822
77	0xbfcb3319f1a96223	-0.21249698924909052
78	0x3fccf24a48eb2124	0.22614410934898743
79	0xbfb37c28b7d0d924	-0.07611326682749514
80	0x3fb8d1389ec57ef6	0.09694246174103313
81	0xbfaae869a3d45b77	-0.05255441784736708
82	0x3fb9efad2ef382f1	0.10131342312116566
83	0xbfc50b2ffce3e51a	-0.16440391395716675
84	0x3fb443ad0ca00c0d	0.07915765341026333
85	0xbfd0b1325f3a81eb	-0.2608152322736987
86	0xbfdb9895ce910230	-0.4311880604982745
87	0x3fb037e1c48bf8c3	0.06335269020562166
88	0x3fc5e8a9bfeeb514	0.17116281387044607
89	0x3fa219e5463a2aec	0.03535381777063215
90	0xbfd5a01f7ab90dbd	-0.33789813027052756
91	0x3fa9abd03ce22c81	0.050138957435671656
92	0x3fa1eea2585864db	0.03502375915940955
93	0xbfd2be8364a02690	-0.2928780062362444
94	0xbfa5da36def9236b	-0.042680468290717886
95	0x3fc475d0ed201bd1	0.15984546259298196
96	0xbfc2d77e7a190069	-0.1472013565235131
97	0xbfc7b2c455900c5d	-0.1851430337702337
98	0x3fdaa633d5090282	0.41639419368952
99	0x3fa3fef1e788a2b1	0.039054450524706914
100	0x3fbbb85c9aaac131	0.10828188682603891
101	0xbfdba8ab0d109fc5	-0.43216968799469796
102	0x3fb96a0d73e7839b	0.09927448348709193
103	0x3fc14867dd070986	0.13502214710576882
104	0x3fd1bc52a8d666c6	0.2771193169406668
105	0x3fb6b76b5726ad17	0.0887362563868702
106	0x3fd00901c35e7739	0.2505497367763954
107	0x3fdbf9d761883e82	0.4371241047347
108	0xbfd1bf2d78deab17	-0.27729355624858115
109	0x3fd16a1eb1978381	0.27210204451517234
110	0xbfc3171ef66acc1b	-0.14914309532250133
111	0x3fa37e40884fca4f	0.038072601928338494
112	0x3fd12789da2b54e9	0.2680382376250479
113	0xbfc73e8b17e84656	-0.18159617106771248
114	0x3fc28aaf94bb73aa	0.14485735666576477
115	0xbfd9d5d7090f7a20	-0.4036767567139652
116	0x3fd805820cadd27e	0.3753361820047657
117	0xbfc7399c24c90df5	-0.1814456157318173
118	0xbfdb6949fd0558c8	-0.42830133160658734
119	0xbfc08d34f2f46852	-0.12930929053328782
120	0x3fce7c6b9f50abe5	0.23817200926836715
121	0xbfd78964e669f25f	-0.3677608728537844
122	0x3fca957d027fa860	0.20768702146534945
123	0xbf92488ebb6b1962	-0.017854910077198645
124	0xbf5012e244c9bc6b	-0.0009810647635750912
125	0xbfa6d6f972b2d35a	-0.04460887456062919
126	0x3fd5e9876d4fbe85	0.3423784797186971
127	0xbfca5991ff2a5ce3	-0.20585846862079568

weight f8 [128, 128]
0	0xbf8a0b7632770c82	-0.012717173972197186
1	0xbfb5ede72568caa7	-0.08566136039079685
2	0x3f892e913c660aa2	0.012295851379126536
3	0x3fae76bf39cd8137	0.05949971752738963
4	0xbfa950766e4c0dcb	-0.04944200607681245
5	0x3fb073210da9dc5f	0.06425673087675098
6	0x3fa1445a85324d30	0.033724621543252176
7	0xbfa870943bc925e7	-0.04773390989118891
8	0x3f9ce17e4d823e60	0.028203938942679918
9	0xbfafa8e4c52fe249	-0.06183543116634788
10	0x3fa41d8f49f714ee	0.03928802278418596
11	0x3f84082bfed9a302	0.009781211581143538
12	0xbf9fa35d1526a065	-0.03089662019343144
13	0xbf797d89568eac8d	-0.00622323653889646
14	0xbfa825261f0d54a3	-0.04715842370084402
15	0x3fa653c34a52623d	0.043607809851156955
16	0xbf9ffc034fe8df6e	-0.031234790565775432
17	0x3f9333f0046ead0f	0.018752813597228853
18	0x3fa717170ede298d	0.045098038258475893
19	0xbfb3ddbe5ba83ece	-0.07760228860592663
20	0xbfb3fd307047c6c3	-0.07808211079807408
21	0x3f85b46a9756d1a8	0.010598023169998097
22	0x3f91cc0f11f01186	0.01737998530372089
23	0x3f942678cb566dba	0.01967800847124377
24	0xbfa3e50a4edd6bef	-0.03885681355196612
25	0xbfa348ede95a7e1c	-0.037665781722577146
26	0x3f864de2ac9f7ed1	0.01089074219993283
27	0x3fb2c84957ff9276	0.07336862944027608
28	0xbfa69259db36a235	-0.04408531952805498
29	0x3f7e6117280998c6	0.007416811422990393
30	0xbfb7d645c449a4a1	-0.09311328928164865
31	0xbfbb38003d0365bb	-0.10632325639325917
32	0xbfad00fc0cb2d963	-0.056648136663556746
33	0xbf826bc4c3c9bfe2	-0.008994614815691141
34	0x3fa334fe4c4021b2	0.03751368218223962
35	0xbfb5cd59e44aea19	-0.08516465972471855
36	0xbfbcf01bf0916e2b	-0.11303877471203154
37	0x3fb09342564862a9	0.06474699598801216
38	0x3f4cd14337dadb38	0.0008794382299218478
39	0xbfb3dbb94b068654	-0.07757146913220342
40	0x3fac710d88ac06c5	0.05555002492293463
41	0xbfa0c34d26c60f8f	-0.032740031226267445
42	0x3f75239d570d64d8	0.005160917863429058
43	0xbfb2001a7b766065	-0.07031407846659617
44	0xbfb2d62dabff29a6	-0.07358060311449907
45	0x3fb14a464169bf0d	0.06753958794592681
46	0x3f2040884a583983	0.0001239935274246034
47	0xbfa4ba63f223b91c	-0.04048454600148174
48	0x3fa3c56e9aa7fb14	0.03861566198246727
49	0x3fb19a5d66a9d18f	0.06876167065076387
50	0x3f91093008dd9bf7	0.016636610547177324
51	0xbf96163436529f80	-0.021569076362225825
52	0xbf9c9359c8761e0e	-0.027905848369782098
53	0x3f9366a4fc1337cf	0.01894624508422976
54	0x3fa51c0224514e96	0.04122931187944549
55	0xbfb1a3d2207a89da	-0.06890595715461903
56	0x3f7ed9a699ce2e82	0.007531786713012802
57	0xbf9df972745ce034	-0.0292718776247229
58	0x3f963c0aab00f635	0.02171341580127813
59	0xbfb921674425113c	-0.09816594518367067
60	0xbf8e0f6228f2379b	-0.014677779078080813
61	0xbfa5d6989e4c908f	-0.042652863811128865
62	0x3fa0a8daa4961b3a	0.032538254347903764
63	0xbfaf19c6c7c8c80b	-0.060743533981067875
64	0xbfb4b22de34580e1	-0.080843799577909
65	0x3f94ffb6ad59031c	0.020506719904236012
66	0xbfb763d92181f0c5	-0.0913673121266952
67	0x3fa38ae021a25333	0.038168911081049826
68	0xbf787d33068533f8	-0.005978774374239208
69	0xbf90c8003cf2400d	-0.016387943000665973
70	0xbfa9f1a2baa13af3	-0.050671658784826955
71	0x3fa160aea8c4fd47	0.03394075212644992
72	0x3f94acece41967e4	0.02019090788085255
73	0xbf772d6c0ceabd1b	-0.005658552238556848
74	0xbfad3572ea658b99	-0.05704840766227121
75	0x3f814057722717ed	0.008423503085293016
76	0xbf868fccc9e4553d	-0.011016464148762334
77	0xbfa366ab9cf775da	-0.03789268771263794
78	0x3f84e50921b3141d	0.010202475872924716
79	0xbfb22edd2ee880d9	-0.0710275878450405
80	0xbfaf5641ae51e692	-0.06120496037415281
81	0x3f9e5be959001c33	0.02964748960223691
82	0xbfb544e6050f111e	-0.08308255790240479
83	0x3f99e9fdee4edba5	0.025306670828026196
84	0x3f5f7a8c154a3af2	0.0019213073730132671
85	0xbf86da82060cc400	-0.011158958253504991
86	0x3fb293c265b6efee	0.07256712897554937
87	0xbf4bb9553ba14963	-0.0008460680176177012
88	0xbf99de6890f7d1b7	-0.025262483451983644
89	0xbfa81c37194b4f3b	-0.04709026511923616
90	0xbf9ab01c7aac257e	-0.02606243609173963
91	0x3fb0c0db9bb14d30	0.06544277716721036
92	0xbfad2e807a363cae	-0.056995406073036534
93	0xbf96744d08be71bf	-0.02192802778118774
94	0x3fab06872a3e4b05	0.05278417959848095
95	0xbfb3a6b65e346033	-0.07676257896344012
96	0xbf9aac1bdc859f56	-0.026047168097107352
97	0xbfa07ba1a6c7463f	-0.0321932331168111
98	0xbfa130500bdea7af	-0.033571721505111334
99	0xbfbb530a349185cd	-0.10673583777818081
100	0x3f93d21c24e3c4a1	0.019356193305558936
101	0xbfb2109d774fa732	-0.07056602633352041
102	0xbfb2cd5250b6bdb9	-0.07344545813133764
103	0xbfa16293b5446ca6	-0.03395520770774256
104	0xbfb506ecd8da8886	-0.0821369199207159
105	0xbfb23a7435f8834e	-0.07120443647046423
106	0xbfa1b1881fbc327f	-0.034557584642333154
107	0xbf95ceaefaa30b48	-0.021296247527753637
108	0xbfa8fa3c391bf53c	-0.04878414342054291
109	0xbfb164080beca877	-0.06793260851978454
110	0x3f97889dc39c0247	0.022982087196398628
111	0xbf10b45284b84f81	-6.37221684701133e-05
112	0xbf824bf15cc989f1	-0.00893391193784951
113	0xbfa1c52b4b4a6ef8	-0.03470740598751648
114	0xbfb701ac85ebca6d	-0.08986929196888989
115	0x3fac646f8c3938ba	0.055453763835076456
116	0xbfb1f361392c051a	-0.07011993070411329
117	0x3f9c14f57515813c	0.02742370154499095
118	0x3fb0c7797f760bd4	0.06554374086230946
119	0xbfae640802929714	-0.05935692817119623
120	0xbfabc469d8913876	-0.05423289078372388
121	0x3f6f63cbaef777a2	0.0038317659561774723
122	0xbfaf2a033c3adfc2	-0.06086740598897179
123	0x3f8c9edbcbefd55e	0.013974873696478592
124	0x3fa09670eedc6cf5	0.03239777484687948
125	0xbf9ded0e8725c7c4	-0.029224612234834316
126	0x3f90f131d66a8a76	0.016545084678578147
127	0xbfa09ae4be5bf53d	-0.03243174384804568
128	0xbfad343d57121a19	-0.05703918159365546
129	0x3fa1645dccd24424	0.033968859913450694
130	0xbfb08b827b792823	-0.06462874903186892
131	0x3fb36cd3cd9b62b8	0.07587932367040195
132	0xbf8202c33e31e232	-0.00879433187059062
133	0xbfb711aef3132a18	-0.09011357721752977
134	0x3f976600bddd95b4	0.022850047672724208
135	0xbfa089ab06ce3128	-0.03230032404016675
136	0xbfb61067abfe56d8	-0.08618781994877212
137	0xbf8df609b0539b7d	-0.014629436200676466
138	0xbf5b81ad2cde7f47	-0.0016788664974924526
139	0xbfa9b77fe1773706	-0.050228115341822074
140	0xbfb1b96f312a01d6	-0.06923575353903941
141	0xbf95930ea0c17125	-0.021068790971512947
142	0x3f9754c14fc69c1b	0.022784252637986762
143	0xbfb6163136e6b74d	-0.08627612676965875
144	0x3fa73309dcf20314	0.04531126806342037
145	0x3f8ed1edf05515ea	0.015048846146451706
146	0x3fa500c4881761c5	0.04102148209830462
147	0xbf931561005b0683	-0.018636241575910716
148	0xbfb6af430e1b0095	-0.08861178488132489
149	0xbfa98c95f2d432c0	-0.04990070904941524
150	0xbfb6dbe324d6352f	-0.0892927136357755
151	0xbfb405937fe46a58	-0.07821008560532883
152	0xbfa31cb5a1d87858	-0.03732841110853319
153	0xbf8286562bd74084	-0.009045289242664241
154	0x3fb1ca27cf229195	0.06949089819915451
155	0x3fabf6655f1623c8	0.05461422715877223
156	0x3f9a33a5d04bd83a	0.025587645376582403
157	0x3fa0f4ab41abe90d	0.03311667610792499
158	0xbfa01090a84ae8d7	-0.031376381438762806
159	0xbf9c74a173783b47	-0.027788660690983204
160	0xbfb71619e4558fe0	-0.09018098663869933
161	0xbfb4cc724f63ebf6	-0.08124460638275352
162	0x3fa0bb9f95246eb8	0.032681452709053926
163	0x3f97fabe30a4868c	0.02341744586840959
164	0xbfb7059d92edc4d2	-0.0899294360840657
165	0xbfb24bf30902cca9	-0.0714713952063898
166	0x3f8b685906a811f8	0.013382621303215977
167	0xbfb0b6be51980366	-0.06528844348941973
168	0xbfb59f20362eb513	-0.08445931742490513
169	0xbfb28e3b76708115	-0.0724827922972547
170	0x3fa1313782d6047f	0.03357861969107833
171	0xbf93c1a9ad73e7d1	-0.01929345246478659
172	0xbfb3ffadd1d0f426	-0.07812010166613045
173	0x3fae6064a3b4b5b1	0.0593291711651135
174	0xbfaf988e03638ecf	-0.061710775293048685
175	0x3f7cf830dcc91125	0.0070726307572537605
176	0x3fb33c4741f73f0a	0.07513852463239004
177	0x3f9ed709e179f1da	0.030117182147010847
178	0xbfa14beba3c62924	-0.03378235220141537
179	0x3f9852ad83b43a1e	0.023752890742850245
180	0xbf5393d48390024b	-0.0011949134188854623
181	0x3faf6afd4553b474	0.06136313887859837
182	0x3fa2d0e39420ce42	0.03674994643406794
183	0xbf8dc190b281be9f	-0.014529352614970846
184	0xbfb242799365aa58	-0.07132682655871159
185	0x3fa70d861cd3344e	0.045025053995779815
186	0x3f980799f8647d3e	0.023466497216870545
187	0xbfaffd25bc1bd6e9	-0.062478236401075034
188	0xbfb4aae9e9fc6807	-0.08073293650195988
189	0x3fac10e38b70f212	0.05481635167277345
190	0xbfb5175c899e3928	-0.08238771781745824
191	0xbfb2100b29002f06	-0.07055730582231598
192	0x3fa237fc78aed69e	0.035583390933806344
193	0x3f851c92f1da1cc5	0.010308406835305548
194	0xbfabb574cb655df7	-0.05411877615795995
195	0xbfb53b6c4a480b95	-0.08293797315131564
196	0xbfb1b64b20244628	-0.0691878274413048
197	0x3fa3d882edffa7da	0.03876122622735041
198	0x3fa8b810fa27feee	0.04827931455292665
199	0xbf9e5515e45c38bc	-0.029621450484278652
200	0xbf805b0c5881ce88	-0.007986160708447501
201	0x3fa729ab5e82e70a	0.04523978737547736
202	0xbfab7b17d8d9e2da	-0.053673501225551326
203	0x3fa04ae74695b96b	0.03182146774894331
204	0x3f8e5dd8544d568d	0.01482743270177458
205	0xbfacd6571bfadce9	-0.05632278648902817
206	0xbf79d50bd0b791fc	-0.0063066922698209425
207	0x3fa558381519fa2a	0.041688683105338534
208	0xbfb40ad0159b1f55	-0.07828999068726479
209	0x3fad2da41641bc1e	0.05698883792580765
210	0x3f9c4c6c2296a259	0.02763527833090715
211	0x3fad784ef28a0426	0.057558505160166626
212	0x3fb0667af7dccfe1	0.06406372596103395
213	0x3f60e34b0d18e0a7	0.002061506828592813
214	0x3fb25c38ea64b423	0.07171970102781748
215	0x3f9640ac8a9b6dce	0.021731086692722994
216	0xbfa1895e3b4babbc	-0.034251160372000794
217	0xbfa215c6709f54fc	-0.03532238125596085
218	0xbfb958b7f809877a	-0.09900998883816028
219	0xbfa30721654a61c7	-0.03716377603013004
220	0x3fac7d36ed09e84b	0.05564281123675182
221	0xbfacf2b344183472	-0.05653915601951888
222	0xbf7e4db4a5c1b4b4	-0.007398324636693921
223	0x3f92497767c97511	0.01785837717976785
224	0x3fa80674b4e43a3a	0.04692425449512823
225	0x3f80fd5cb905b566	0.008295750042374105
226	0x3fa4efebb84f548d	0.04089295029522431
227	0x3fad110f306ac09c	0.056770777378347875
228	0x3f9502e43feae942	0.0205188430797787
229	0xbfa55a5ec5c93eeb	-0.041705094951451326
230	0xbfb0969bfacedfbf	-0.06479811547512691
231	0x3f7f0d38c0f94de0	0.007580968565509022
232	0x3f87ec0b704456c0	0.011680688251128557
233	0xbf9519e5e98031d3	-0.020606605889087092
234	0xbfb13b7d3cf63162	-0.06731398332903418
235	0xbfa54ea125b6c855	-0.041615520337828706
236	0xbfb202d17776fa33	-0.07035550276393891
237	0xbfb4ac75f226eea9	-0.08075654184261317
238	0xbf938d78cc97d706	-0.019094359862683617
239	0x3f7bb02e85dbd6a1	0.0067598168659423205
240	0x3fa68d25ddff70df	0.04404562315878179
241	0x3fae496179f2eeee	0.05915360082278008
242	0x3f9be081f6043097	0.027223616257331242
243	0xbf80053840b7fa0b	-0.007822455859238372
244	0x3f47bc638418c952	0.0007243619840607096
245	0xbfaea4316712c8de	-0.05984644301624241
246	0x3fb0257b1d847a69	0.06307191343919673
247	0xbfac08030c418102	-0.05474862598998877
248	0xbfaf995edb16aa9e	-0.06171699928684869
249	0xbf87182d606bf66d	-0.011276583199556012
250	0x3f69c46baf70cc6f	0.003145418475037291
251	0xbfb20eadb1e61c6f	-0.07053647607072987
252	0x3fa3954e80350015	0.03824849429156544
253	0x3f8ba18c331ca80e	0.013491721448719598
254	0x3fa8762faf236cf1	0.04777668965263072
255	0x3f9c28f8a777afb6	0.027500043126493977

bias f8 [128]
0	0x3fa9bb93e7eb8c01	0.05025922971778841
1	0xbf9fe42632d27e60	-0.031143757678931627
2	0x3fb072cd6896c1ad	0.06425174525680317
3	0xbfb47b30bf792a6e	-0.08000473665848926
4	0x3faf4c40e104c1b3	0.06112864252861829
5	0xbfb3d7c2c79e843e	-0.077510999426992
6	0xbf4e8389ef398d85	-0.0009312079914249183
7	0xbf683992c98e70c0	-0.002957140630725247
8	0xbfac9a1ff51c4ac9	-0.05586337916442614
9	0x3f7573e4f3a6733f	0.005237478583151766
10	0x3f747e07433172da	0.005003002518688427
11	0x3fa8f7b5f73c410e	0.048764883451555815
12	0xbfaa56011012859d	-0.051437409603077834
13	0xbfa58f80cae891fb	-0.04211046673689008
14	0xbf98fd4e0c34fd8b	-0.0244037814093168
15	0x3f93960ed56c07a7	0.019127113128895392
16	0xbfaa8525f76216ae	-0.051797090957774614
17	0xbf9dfd262f611800	-0.029285999910165117
18	0x3f96614c24f487f5	0.02185553527409208
19	0xbfa60ec3667d1ebc	-0.04308138490756394
20	0xbfa38e52c8be19a6	-0.038195216183385214
21	0x3fb0a22e476c83ce	0.06497468227145406
22	0x3f4a89a080573445	0.0008098634431746929
23	0x3f9b6630cef385ff	0.02675701392298002
24	0xbf9255899f78d06b	-0.01790442500914972
25	0x3f74f971a1b4d585	0.0051207007157264605
26	0x3f649ddbed94edf0	0.002516679331760356
27	0x3faae41aafb3a35e	0.052521547267878374
28	0x3fa8ee6615867fed	0.04869383824120619
29	0xbf92049a70892b37	-0.01759568511833295
30	0xbfb41ba801beac5d	-0.07854700129125676
31	0x3f82f5a2efc58479	0.00925757688736638
32	0xbfb8e948e163cd7d	-0.09730964186365117
33	0x3f96e5d0b862a5bc	0.022361050847995875
34	0x3fae031c895a5d01	0.058617488638612165
35	0xbfb987736581ed31	-0.09972306469164917
36	0x3f90b09677c20750	0.016298628863757714
37	0xbf8e1695a6df0185	-0.014691514163019512
38	0xbfa10ce9d486048f	-0.0333016464164838
39	0x3fa492cfd4a0aefb	0.040182585435415384
40	0xbfa38eea7adbf490	-0.038199737069569584
41	0xbfb3106fe55d3d52	-0.07446956014358833
42	0x3fa0f7c77587aa09	0.03314040479365949
43	0xbfaa4a2919025aea	-0.05134705000198443
44	0x3fa6060f9c2539fc	0.04301499157974217
45	0xbfb1769f44e202d7	-0.06821628028593395
46	0xbfb2f64fdd7ee46d	-0.07407092244729237
47	0x3f937d0c2f9153f3	0.01903170624094126
48	0x3fa86c54d69160b4	0.04770150298344458
49	0x3f91aea75a771df3	0.017267813583911672
50	0x3f97732ed47bccff	0.02290032550713494
51	0xbfa0697523ddc92d	-0.0320545774728934
52	0x3fa353eb09bd2f57	0.0377496194256241
53	0xbfb52bb672a61969	-0.0826982526687964
54	0xbfb4858ba02fd49c	-0.08016274128734086
55	0x3fa7c18806657b25	0.04639840200501614
56	0x3fad47a8d67d420c	0.057187343771719495
57	0x3f95bb25d72a7cfd	0.02122172475594385
58	0x3f9a416e4bb2bee5	0.02564022385621358
59	0x3f8c5bc6300463ed	0.013846920338027114
60	0x3fa6eeea05876932	0.04479152028553059
61	0xbf9aae09d4c37ecc	-0.026054528819144093
62	0xbfb0ed707b74deff	-0.06612303747249014
63	0x3fb02b6fbaaf7a63	0.06316278751135367
64	0xbfa301104a742153	-0.03711748989923316
65	0x3fad2b6c3dbe4a1f	0.056971914803529915
66	0xbfa867ec9bec944c	-0.04766787913676093
67	0xbf5aecca4027cb65	-0.0016433692077241987
68	0xbfb000d739b75fa3	-0.0625128284367507
69	0x3fb2408cef0a6054	0.07129746280622956
70	0x3f9296579f3a9369	0.0181516352592043
71	0xbf745eac81be0400	-0.004973100523671725
72	0xbfab31da9ee342aa	-0.053114730735278684
73	0xbfb6d3fd030e2c9b	-0.089172185178699
74	0xbfb2851b0bc7c0e7	-0.07234353101353329
75	0xbfa2451ea932f40b	-0.035683591989688145
76	0x3f99ee99fdfdeb00	0.02532425511115388
77	0xbfb9a8b14d2f73bf	-0.10023029455574227
78	0xbfa875e607ff39a4	-0.04777449462527564
79	0xbfb8c7ef2ac89cf4	-0.0968007544948824
80	0xbfb05f3650ae9258	-0.06395282239697886
81	0x3f8816ed69b8c8c7	0.011762480534433085
82	0xbfafad981d4d1448	-0.061871293618005085
83	0x3f9ad87f9d9baa98	0.02621650123084382
84	0xbfb235adcb7b0218	-0.07113157480035459
85	0x3fa125ef7823b8ec	0.03349254933879017
86	0xbfafc57b835b5a3b	-0.062053546700259386
87	0xbfaaae3914a5e9f7	-0.05211046578456895
88	0x3f9c095c67693bb8	0.02737945920153681
89	0xbfb100d35f09794f	-0.06641884870757518
90	0x3fb17a3e0b6912fe	0.06827152041030257
91	0xbfa86caef7dfdc60	-0.047704189069855074
92	0x3f953881efa0e9b0	0.02072337174488731
93	0xbf960604c7cd5e22	-0.021507334418258257
94	0xbfae42d9414f5236	-0.059103764746087625
95	0xbfaebdbb123b1546	-0.060041280723036425
96	0xbfa0b9d8af985461	-0.032667895731869796
97	0x3fa6ed7477fc4f18	0.04478038754146335
98	0x3fa7d78ad18e514b	0.04656633194022904
99	0x3f9742f4f5802ad6	0.02271635769288135
100	0xbfb6ca6b8caeb64e	-0.08902618584280583
101	0xbfa09e67c73d82ce	-0.03245853716976442
102	0xbf9e9774ccec402c	-0.02987463474988787
103	0x3fa77dddcd859159	0.04588215955553449
104	0xbfa8b5837d6648b0	-0.048259839112817615
105	0x3faec694679ac710	0.060108792922063725
106	0xbf85865483ffdf89	-0.01051012065725822
107	0xbfb1227ff01973de	-0.06693267452051496
108	0xbf9e7d4c05abc53d	-0.029774844976548243
109	0x3fa1cdf5c2881acd	0.03477447509435692
110	0xbfb0031aa1d8ff80	-0.06254736377104386
111	0x3f23e857f058ce01	0.0001518828723178073
112	0xbfa9482fbeed4d9e	-0.04937886434222637
113	0xbf7d333bbc0adae3	-0.007128938043641428
114	0xbfb519819953fe17	-0.08242044442521777
115	0xbfa175e4e954cc9f	-0.03410258625299289
116	0xbfa32bf06fb50b82	-0.03744460452664723
117	0xbfa6b0e3f4489d36	-0.044318317003041605
118	0xbfa072f3102ce4c7	-0.03212699482396313
119	0x3f7f27bbcd59fa74	0.007606252290882954
120	0xbfa93e2ba3d5f8c1	-0.04930244803380069
121	0xbfac887b9f6dcad7	-0.055728781901867634
122	0xbf97158db71e64a3	-0.022543157865219
123	0x3f9bc76eda5fd640	0.02712796409465157
124	0xbf6bfaaeb1003f6b	-0.003415433115158286
125	0x3f96906524635ba2	0.02203519854159775
126	0xbfb478924be0c921	-0.07996477463237685
127	0xbf8391a83d48b39f	-0.009555162782896974

weight f8 [64, 128]
0	0xbfaf0c4550b272ea	-0.060640493488994654
1	0xbf9536be91fbb35e	-0.020716645870311516
2	0xbfb314deae85e728	-0.07453719864670616
3	0x3fae5c0653b61e5c	0.059295842856098985
4	0x3f95426ec41be59d	0.02076123306230714
5	0x3faf95ecccd8a8f5	0.061690711980490955
6	0x3fa903e15d79dfad	0.04885772958817767
7	0x3f9e7be5d00c3313	0.029769507239552583
8	0x3fb0b986935d2471	0.06533089730977949
9	0xbf9fbcc7396f9ae9	-0.030993569260227814
10	0xbfb31b946834b77a	-0.07463958305444676
11	0xbfa3bb65c6e1e501	-0.038539104964863576
12	0xbf7e064eaf335c28	-0.00733023391804636
13	0xbf9ba5300b5ee99e	-0.02699732846643032
14	0xbf90535b66349791	-0.015942981827854977
15	0x3f7ab472b66bc027	0.006519744964620633
16	0xbf94fc29d5b9162b	-0.02049317709886204
17	0x3fadd1ac6244fda5	0.058240305896556856
18	0xbf6c44dae3be5cb6	-0.003450801390453141
19	0xbfb55aa6c52629b7	-0.08341448128900351
20	0x3fae5d61462c2bb8	0.05930618268583693
21	0x3fb041c80ac44afc	0.06350374472485137
22	0x3faa83d65e008460	0.051787089323860114
23	0xbf9dbe9d8626c78e	-0.029047452271420186
24	0xbfb4ea33c02fc084	-0.08169864122442233
25	0x3f90b5355eb47cd8	0.01631625547917967
26	0xbfa5541d13ad2d71	-0.04165736069861737
27	0x3f57e67ca0575707	0.0014587609342603962
28	0xbf82599d79756ddc	-0.008959989804387662
29	0x3fb3ae37adba4066	0.0768770980014338
30	0xbf9d26fb052ecd50	-0.028469011489233254
31	0x3f48371302197d5b	0.0007389872373088456
32	0x3faa31b2ebb10d8e	0.05116042258353125
33	0xbfa670691e9dd74b	-0.043826374995588134
34	0x3f9a99c321c2621e	0.025977181373123874
35	0xbf8964db802723aa	-0.0123994015201719
36	0xbf811d536dfb1777	-0.008356715959404444
37	0x3faf5369a900fd45	0.061183263664583744
38	0xbfa9b091282c728b	-0.05017522445107144
39	0x3f8463c0faa7e761	0.009955890321169116
40	0xbfad4ece5c8b7edd	-0.05724186782549421
41	0x3f94aeebf5260ec7	0.020198523366629553
42	0xbf783f0c8bf45b1f	-0.005919503222023419
43	0x3f30d5f5de4cd1d5	0.00025689366002559544
44	0xbfa6c7f62df7c421	-0.044494336234386596
45	0x3f82141c268dbeec	0.008827419210973152
46	0xbf9c6ed70b42d385	-0.027766571104354227
47	0xbf9abebc2a045e74	-0.026118221344488338
48	0xbf67d8579c22b5f7	-0.002910777199835786
49	0x3fa707e51b40c5eb	0.044982108666214625
50	0x3fa6bb879c8f3cf8	0.04439948831679347
51	0x3f744d1c4f850194	0.004956350887653466
52	0xbfb4e936597d14df	-0.08168353733806864
53	0xbfa9b0631ff66bd6	-0.05017385258835076
54	0xbf970dd1d6fbb972	-0.022513655420817576
55	0x3fa589d049e795aa	0.04206705953746888
56	0x3fb00bb6135994b2	0.06267869923029215
57	0xbfa9a664a1cc37a6	-0.050097603560160395
58	0xbfad7b5fbbff93eb	-0.05758189363385909
59	0x3fa0572091c240ce	0.031914727967092923
60	0x3fa0ab36508b74dd	0.032556245166895904
61	0xbf9380787d84a9a8	-0.019044764195464886
62	0xbfb16046182a5619	-0.06787527170157438
63	0xbfbca466160fc46a	-0.11188352621663147
64	0x3fa5fe06a5912742	0.04295368929940803
65	0x3fb0700411ee8a4b	0.0642092269686511
66	0x3fb13e454a5c3a1b	0.06735642495571208
67	0x3fb06c3f6be79c47	0.0641517294348982
68	0x3fa11806aad610e9	0.03338642917063501
69	0xbf95997358cba440	-0.021093179983754817
70	0x3f712ae1f217d349	0.004191286659524015
71	0x3fa8c17ae3b34ab6	0.04835113553567309
72	0x3f8d6b7bedfd679e	0.014365165901540963
73	0xbfb2d65b8bd52bcc	-0.073583337439387
74	0xbfb1f68ab568c71e	-0.07016817978799536
75	0xbfb4cc0c8e55bff0	-0.08123854136442765
76	0x3fa317737a731829	0.03728829259630146
77	0xbfa604a5f6dccb61	-0.04300421369989383
78	0x3f8abdae307fd7d5	0.013057099204143366
79	0xbfb0cc52a6bbf102	-0.06561771937044017
80	0xbfb31de4dd595b44	-0.0746748962786628
81	0x3f9a3c81dcdffdf8	0.025621441942346806
82	0x3facc0b3a2b4ec8e	0.05615769730726426
83	0x3f877dc5de29fb4e	0.01147036155930228
84	0xbfb4c3dfc76077c7	-0.08111380212400753
85	0x3fae0cb4eebd522d	0.0586906949453446
86	0x3f9f043506323a6f	0.030289486411272323
87	0xbfb0a679abff8348	-0.06504021119282044
88	0xbf89ada8d09acf57	-0.012538260332213431
89	0xbf844066f70ca5b3	-0.009888462461804836
90	0x3f910c7e4827a86c	0.016649220613466673
91	0xbfb2abd67973063e	-0.07293453660079138
92	0x3faf1d5d470b6630	0.0607709073280599
93	0xbfb151be73f8e003	-0.06765356379844438
94	0xbfb0f26cadfae362	-0.0661991047626436
95	0x3f97d0eb81534252	0.02325790383184973
96	0x3f82d1b3c55d37e5	0.00918903776223696
97	0xbf9264969d89d848	-0.01796183907068663
98	0x3f8cb4769a76eb6e	0.014016081417926176
99	0xbfa9da7f7b367f5d	-0.05049513224662292
100	0xbf63df9240f3f3ef	-0.0024259430425659294
101	0xbf7edf3639bd3d0b	-0.007537090128450839
102	0x3f836948f2eb29f3	0.009478158868110298
103	0xbfa5b9352097d373	-0.042428646305700556
104	0x3f9ffcdb56306b6c	0.031238009582107137
105	0xbfa6e1fee8ab3bae	-0.0446929606456402
106	0xbfb22048babb9300	-0.0708051162615213
107	0xbfb14a7240d2d1d8	-0.06754221041302999
108	0x3fa4e0c6797613ff	0.04077739937478241
109	0x3f98f012886a46c7	0.024353303505057846
110	0x3fa91dc627cffa21	0.049055282936013585
111	0xbfb2d75ea1e88cd9	-0.07359878018228318
112	0x3f8b5b0a3606b2b8	0.01335723855376024
113	0xbf9567a2d917f2c9	-0.020903152942980428
114	0xbfa82498507d5084	-0.04715419752634012
115	0xbf85dfd7628f42a3	-0.010680849738407721
116	0x3fa9ad50e5c89061	0.0501504211900119
117	0xbfa7b32dcb283e21	-0.046288901376211784
118	0xbfb0d577d5ae29bc	-0.06575726477436822
119	0x3f7cb5c01ce11a5a	0.007009268227256083
120	0xbfb08be952b3aefd	-0.06463487881745418
121	0xbfb10632e71cea76	-0.06650083677679128
122	0xbf69beef2d4621d5	-0.0031428023741606284
123	0x3faaf8a609db7b48	0.052678288176812915
124	0xbfa2b9adad6402be	-0.036572863975384604
125	0xbfa93874756f15d1	-0.049258841834255336
126	0xbf9b5c1e7797740e	-0.026718593644421466
127	0xbf9b4ce0f2cfb06e	-0.026660456485771915
128	0x3f8e1548d08ac43f	0.01468903433246471
129	0xbfb0490e7a42cbf0	-0.06361475453267906
130	0xbfb068d3e873558b	-0.06409954476415274
131	0xbfb1fe22c7fe7419	-0.07028405554451957
132	0x3f928a9ebea8d969	0.018106918703972328
133	0xbfa54c23d7cc9154	-0.041596527187979376
134	0xbf972565f10a49ba	-0.022603600346494203
135	0x3fa069b17eb880de	0.03205637618907685
136	0x3f7b653b7f53eef9	0.006688339625948941
137	0xbfa180f4dbff6a84	-0.03418698487776786
138	0x3f9ae9d738031e37	0.02628265647288527
139	0xbf906305ecec5482	-0.016002743325846065
140	0x3f7c1cb9e89b5d4a	0.006863332944440368
141	0x3f68e0e31df2de96	0.003036922061791912
142	0xbf80c9c423a2b08e	-0.00819733842612205
143	0x3f853156ea1f06b8	0.01034801389676275
144	0xbf60049cfc63f335	-0.001955324757658162
145	0xbfb3fdc00df18abf	-0.07809067097108889
146	0xbf8dd4ade7f0cdfb	-0.014565809860960668
147	0x3faf233941b45b8e	0.060815610189982924
148	0xbfb585438ca799b5	-0.08406469520523425
149	0xbfb022513d124a01	-0.06302364102365489
150	0xbf869293bfd41a83	-0.011021761218683373
151	0xbfa84896ae6f803a	-0.047428807061578884
152	0xbfa2528736b1272a	-0.03578589003207207
153	0x3f93d9afd54ac542	0.019385096925082175
154	0x3f797315e0a9a4c6	0.0062132696717551224
155	0xbf92a6f3e6b35f2d	-0.018214999156810286
156	0xbfa67a60b8921df5	-0.04390241864262726
157	0xbf9b055f7730efda	-0.026387683534480157
158	0xbf7fe1c3b7ac7e1b	-0.007783665200605162
159	0xbf91b4ebe4b68220	-0.017291723093537326
160	0x3f7a8f9e3a53520c	0.006484621121860556
161	0xbfb00d7a527e970b	-0.06270565523172082
162	0xbfb41263efc29b34	-0.07840561488647496
163	0x3fa26560b6d96fb9	0.035929701157072676
164	0xbfaacf7062c94709	-0.05236388402830811
165	0x3f9c3167d8803525	0.02753221758762438
166	0xbfb280d480ec752b	-0.07227829120207178
167	0xbf8ddd868f8fb042	-0.014582682853834798
168	0x3fa70c6221569d04	0.0450163522430618
169	0x3f9bf366cf7d682e	0.027295690931488696
170	0x3faf258787023457	0.060833201628249504
171	0x3faccf612ae3de55	0.05626968048630646
172	0xbf9755adf5dd3837	-0.022787778979641096
173	0x3faa2d8e1c19b55a	0.05112880795500514
174	0xbf922bbd7b1804bd	-0.01774498046689098
175	0xbf9fc4bf9e20c3f4	-0.031023973490110948
176	0x3fa633e671df438e	0.04336471691170295
177	0x3f901b7a9d05a6ff	0.01572982390772548
178	0xbfb07ec72c1887d0	-0.064434479013044
179	0xbfb47aaa4cac2bfb	-0.07999672290695507
180	0xbfa2fc3ccb850002	-0.037080669254010004
181	0xbfa2aa9444060b65	-0.03645766573301649
182	0xbf9fb8d4ba41a9e9	-0.030978511684603225
183	0x3f9ad7b8e5fe77d2	0.026213540113182728
184	0xbfa1f72dda85c491	-0.035088951993096924
185	0xbf7aab978823715d	-0.006511299058015699
186	0x3f8944a9aab851b0	0.012337995073757962
187	0xbfafe6041b2dcf27	-0.06230175811552235
188	0x3f8db9d83aad35ea	0.01451462678019318
189	0xbfb0df1c0ffa35d0	-0.06590438261101572
190	0xbf99f7a6eddd1f35	-0.02535878016286049
191	0xbfb04f0bbf903682	-0.06370614458884385
192	0xbf79a1eb64e974df	-0.006257934101623535
193	0xbfac7761032a95df	-0.055598289143101935
194	0xbfb332f30f230332	-0.07499617690610874
195	0x3fb373bb54cc68e8	0.07598467655444419
196	0x3fa0949a6fd63d2c	0.032383752967798024
197	0xbfb415a1917b8c7a	-0.07845506479093159
198	0xbf8f350203ba6518	-0.015237823237202394
199	0x3faca0c74c4f7b7a	0.05591414267086399
200	0x3f845dbd1091c6ad	0.00994441706481849
201	0x3fae465a3b2682c7	0.05913049671221909
202	0xbfa3bd318b93e913	-0.038552807129194865
203	0x3fa3bb26401fd938	0.038537211730658105
204	0x3f81aeab69cf67fb	0.008633937040872999
205	0x3fae1abf2b52dacd	0.05879781154492534
206	0xbfb0f82b0e245fd5	-0.06628674597993663
207	0xbf836baffa04c8ad	-0.009482741181816879
208	0x3f934c830d5d0e07	0.018846557322161697
209	0x3fa88bf34ad219d0	0.04794273651446057
210	0x3fb2296184aae954	0.07094392289119372
211	0x3fa8cca0ddf8d072	0.04843619069689077
212	0xbfad417fa819c96a	-0.05714034010897502
213	0x3fa92e394f06e022	0.04918078508075065
214	0x3faac75fbc968472	0.05230235268687346
215	0x3f7954aa943cd9c2	0.006184259724071274
216	0x3faf628528736a38	0.061298524082037564
217	0xbfa8db6126a595cf	-0.04854873272669701
218	0xbfb4639708656497	-0.07964462237341007
219	0xbf8b0002b0956fc8	-0.013183613790424334
220	0xbfa19b4b8383eb3b	-0.03438793163691974
221	0x3faa750265121b91	0.05167396053098295
222	0xbfaab6834a7f77f3	-0.05217371258162009
223	0x3f9460afb0910d2f	0.019900078918238136
224	0xbf9ecf59b86e4965	-0.030087854272616527
225	0xbfac898eae3a06f2	-0.055736979263213984
226	0xbfafb79b837e03cb	-0.061947688866900906
227	0x3f99b65f48030f2f	0.025109757204304358
228	0x3fa14b678f90dc0e	0.03377841594231522
229	0x3fab110d95b78692	0.05286447956656305
230	0x3f7237d08df28bd5	0.004447760263391627
231	0xbfba78b8aae3cc72	-0.10340456173052973
232	0x3f8b545d11354276	0.013344504439971799
233	0xbfb5bb2682e067ca	-0.08488693900326819
234	0x3fb12925e262dba3	0.06703411843305544
235	0x3f9bae40757d539d	0.027031905337327456
236	0x3f9982df3da6c87d	0.024913299692066893
237	0xbfb585d18cebb6a6	-0.08407315912674082
238	0xbfa2c2adad5012fa	-0.036641528517099745
239	0x3f88e84835303cef	0.012161792872602521
240	0x3fa3fe29cc71db9d	0.03904848690665761
241	0xbfb4d133fd17001c	-0.08131718567801766
242	0xbf91a5261ff362a8	-0.017231555652730407
243	0x3fb21991de00e289	0.07070266408926264
244	0xbfa3aec52ea3ef0b	-0.038442766135601124
245	0x3f5c910bf7a85666	0.0017435662144910324
246	0xbf720dbdf2a9f796	-0.004407636627204689
247	0xbf86551bb1b68a88	-0.010904518471595695
248	0x3fb1879623a15690	0.06847513551596252
249	0x3fa81af7c729f95a	0.04708074861717888
250	0xbf9b799b5406069a	-0.026831080439939294
251	0x3fac4ec0e4aa4a2d	0.055288341439468126
252	0x3f77ce8df515d6c3	0.0058122201165724
253	0x3f80919e43f986d0	0.008090244721816658
254	0x3f9c9ae8e22ef47f	0.027934683613910934
255	0x3fae878992814e2a	0.059627818235324107

bias f8 [64]
0	0x3faa2df469b33a16	0.0511318568256806
1	0xbf9165a719c81cf6	-0.016989336918439478
2	0xbfb0b070bdc429a1	-0.06519226677861535
3	0xbf9ef96ad110c92c	-0.03024832631144496
4	0x3f92ba051e87402d	0.018287734974194492
5	0x3f98c7ae0c994e9e	0.024199218291257034
6	0xbf8a5516579f039b	-0.012857603596673253
7	0x3fb5cf0d152b00d3	0.0851905991248743
8	0xbfb276984d64f848	-0.07212211503517196
9	0x3fb4bc40e8d7e1b5	0.08099752125406819
10	0x3fab88dbf23c4b4d	0.05377852756477939
11	0xbfad925d072fb02d	-0.057757289054137885
12	0xbfb80da3d51bab69	-0.09395812943300332
13	0xbfc4f25a8922d3e2	-0.1636460466012571
14	0xbf93c1ea6d80ee7e	-0.01929441731793568
15	0x3fa85aa04b8063dd	0.04756642266892872
16	0x3fadd8352e1651ed	0.05829015910709132
17	0xbfb51649b920e342	-0.08237133760202389
18	0x3fb0163c10fcd465	0.06283927359329906
19	0x3f6daf14bb352ef9	0.003623524180204171
20	0x3fa9399cd1b36302	0.04926767406295164
21	0x3f9983dca59ee026	0.024917075737647697
22	0xbfb53f426f4a6c99	-0.08299651352938255
23	0x3fa5c0cd15d4fa9b	0.04248658076766284
24	0xbf9f7c7572e33015	-0.030748210084127054
25	0xbfc3f51a7bf223b0	-0.15591746379894067
26	0x3fbe5426e0075f11	0.11847155541851985
27	0x3fa7c1a0420f00e1	0.04639912420634729
28	0x3fa2b5f4a4d5b6f2	0.03654446136611779
29	0x3fb5fe3cfba00015	0.08591061728657252
30	0xbf9595aa1504a673	-0.02107873681339929
31	0x3f9ba18c4630009e	0.026983444007783512
32	0x3fa029c4def2b98a	0.031568672385549126
33	0xbf918a8280a236b7	-0.01712993536107518
34	0x3fb86b37b78b1696	0.09538601141965794
35	0x3f63a981f1be62f4	0.0024001634573774747
36	0xbfb0143ae10be866	-0.06280868524837188
37	0x3fca74af9c1296fa	0.20668597336514677
38	0xbf8cfcdd8e4eaf5c	-0.014154177575470044
39	0x3f991ed51ca70115	0.02453167903308991
40	0xbfb5f81b2c41d667	-0.08581704931733612
41	0x3fb171318460e355	0.0681334446134206
42	0x3fb03af2df6d7822	0.0633994861104559
43	0x3fb1ecbf152c0516	0.07001871363538145
44	0xbfa6b6ce26496d75	-0.044363443540272586
45	0xbf8b28cd3d85bc1e	-0.013261416854872417
46	0xbfb4fc5c50b0d8a2	-0.08197571725836153
47	0x3fac876c1cf118f1	0.05572069028180405
48	0x3fa054fdab9afd3a	0.03189842910569003
49	0x3f70e605f77b61af	0.004125617320561422
50	0xbf7ea94cc92c087c	-0.007485675758973295
51	0x3fabfe13c2f2eac4	0.05467283015010119
52	0x3f8dd8f8a5577930	0.014573996110752135
53	0xbfbaccf36838f3a5	-0.10468980116361466
54	0xbfb31d181c4ceeb9	-0.07466269198351484
55	0x3f916e4735f63eb1	0.017022240322659147
56	0x3f82e3ca605e6032	0.009223538461626022
57	0x3fb2a8d54ad848f6	0.07288868977801485
58	0xbfa34ce2a10ba9ee	-0.03769596305740551
59	0xbf74fad7bd887e23	-0.005122034774586423
60	0xbfa8717ec5181a3d	-0.047740899619431044
61	0xbfa28fbdd73e682e	-0.03625291111457361
62	0xbfb1a22fb7b039f1	-0.06888101801471415
63	0x3fb17f0aeb3870ab	0.06834476702391849
